ckps/LeNet_04_14_16_00.pth (torch_old, 249571 bytes, 10 tensors)

conv1.weight f4 [6, 3, 5, 5]
0	0xbea34087	-0.31885168
1	0xbf735f56	-0.95067346
2	0xbf3be83b	-0.7340123
3	0xbe220c6f	-0.15825056
4	0xbdad7bfb	-0.08470913
5	0xbf5815a1	-0.84408003
6	0xbe689710	-0.22713876
7	0x3e280856	0.1640943
8	0x3d95e8a6	0.07319765
9	0x37aa5b8b	2.0308207e-05
10	0x3d1e5195	0.03865202
11	0xbe264f90	-0.16241288
12	0x3ce0a625	0.027422974
13	0x3e057b0c	0.1303522
14	0xbd0f7f4e	-0.035033517
15	0x3ecd89e6	0.4014427
16	0x3e2ca708	0.16860592
17	0x3f110347	0.56645626
18	0x3f114773	0.5674965
19	0x3e5ee006	0.21765146
20	0x3e9f6f30	0.31139517
21	0x3f056c4d	0.5211838
22	0x3f34925c	0.70535827
23	0x3e7018a4	0.234469
24	0xbc86da1f	-0.01646143
25	0x3e66c7ed	0.22537203
26	0xbedf0a56	-0.43562573
27	0xbde09694	-0.109662205
28	0x3e7e0f47	0.24810515
29	0xbb638a53	-0.0034719899
30	0xbe4e5227	-0.20148526
31	0x3e98ab60	0.2981825
32	0x3f736f44	0.9509165
33	0x3e931940	0.28730202
34	0xbddd79a1	-0.108142145
35	0x3e0dd0b5	0.13849147
36	0x3e8be9fa	0.27326947
37	0x3dbecc49	0.09316308
38	0xbe26d3f0	-0.16291785
39	0xbe315f67	-0.1732155
40	0xbe5d3db7	-0.21605574
41	0xbe65782d	-0.22409125
42	0xbb38652c	-0.0028136475
43	0xbd82b2d6	-0.063817665
44	0xbd60c592	-0.054875918
45	0xbe2c47d7	-0.1682428
46	0xbec11aad	-0.37715665
47	0xbe957f7d	-0.29198828
48	0xbf0717a1	-0.5277043
49	0xbe9f33f3	-0.31094322
50	0xbd344ba0	-0.044017434
51	0xbeeb7d07	-0.45993826
52	0x3d62fb01	0.055415157
53	0x3f307ab9	0.6893726
54	0x3ec3112b	0.38099036
55	0xbe99f704	-0.3007127
56	0x3e26e6d5	0.16298993
57	0x3f62fc6e	0.8866643
58	0x3eba40af	0.36377475
59	0xbe0b1e04	-0.13585669
60	0x3edd4f17	0.43224403
61	0x3e9de45c	0.30838287
62	0x3deba286	0.11505608
63	0xbee17e52	-0.44041687
64	0xbec4474f	-0.38335654
65	0x3d30ba6b	0.043146532
66	0x3c4c25a3	0.012460145
67	0xbe1e685f	-0.15469502
68	0xbec5e5f7	-0.38652012
69	0xbe447737	-0.19186102
70	0x3bdc780a	0.006728177
71	0xbe2f288c	-0.17105311
72	0xbd6062a4	-0.05478157
73	0xbedbde47	-0.42943022
74	0xbddbe115	-0.1073629
75	0x3ed20aec	0.41023958
76	0x3ca82bb2	0.020528648
77	0x3de9a18f	0.11407768
78	0xbdd2a460	-0.10285258
79	0x3d778543	0.060429823
80	0xbcf2ad78	-0.029623732
81	0xbe375d20	-0.17906618
82	0x3ec34f1e	0.381463
83	0xbec7ffef	-0.3906245
84	0xbdc652f4	-0.09683791
85	0xbe0ba0d3	-0.13635568
86	0xbe2cfe7c	-0.16893953
87	0x3f525578	0.82161665
88	0xbed3bb45	-0.41353813
89	0xbcebc968	-0.028782561
90	0xbcf132c7	-0.029443158
91	0xbeab0cbd	-0.33408156
92	0x3f57663b	0.84140366
93	0xbeb2cea9	-0.34923294
94	0xbe7a93a1	-0.24470378
95	0x3dbfe68f	0.093701474
96	0xbf1827c2	-0.59435666
97	0x3f17a7b5	0.59240276
98	0xbdb6b367	-0.08920937
99	0xbb9e0fd1	-0.004823663
100	0xbe6a9737	-0.22909246
101	0xbec1b7ed	-0.37835637
102	0x3c8e2351	0.017350825
103	0xbd804ddf	-0.06264853
104	0x3d53e02f	0.05172747
105	0xbe029d8f	-0.12755416
106	0xbea5396f	-0.3227038
107	0x3ee03cec	0.4379648
108	0xbd88e469	-0.06684191
109	0x3e2796fb	0.16366188
110	0xbe03fbc8	-0.12889016
111	0xbf093c29	-0.5360742
112	0x3f44811c	0.76759505
113	0xbe41010d	-0.18848057
114	0x3d7aad86	0.06120064
115	0xbdccd891	-0.10002244
116	0xbf2a5100	-0.66529846
117	0x3f5dc268	0.86624765
118	0xbd745e4f	-0.059660252
119	0xbda2240c	-0.07917032
120	0x3dc2ceaf	0.09512078
121	0xbf373fd2	-0.7158176
122	0x3f18a5ec	0.59628177
123	0x3d86f8fd	0.065904595
124	0x3e1cc7ad	0.15310545
125	0xbe50d68b	-0.20394342
126	0x3d7768a0	0.060402513
127	0x3ea2e3fa	0.31814557
128	0x3d8c86da	0.068616584
129	0xbe86298e	-0.2620358
130	0xbe23e0c2	-0.16003707
131	0xbd8dfcdb	-0.06932994
132	0x3ee945c7	0.45561048
133	0x3c3e51c6	0.011616176
134	0xbe03bbd1	-0.12864615
135	0xbd83d881	-0.06437779
136	0xbeb4aedc	-0.35289657
137	0x3f1c0d38	0.6095767
138	0xbd6d3fc7	-0.05792215
139	0xbc9c33a5	-0.019067595
140	0xbe0b7b93	-0.13621359
141	0xbed0a37a	-0.40749723
142	0x3f366265	0.7124389
143	0xbe1edbfd	-0.15513606
144	0xbdae0433	-0.08496895
145	0x3e4bf31b	0.19916956
146	0xbef34257	-0.4751155
147	0x3f174b3c	0.59099174
148	0xbd9cabd0	-0.07649958
149	0xbe45ceab	-0.19317119
150	0xbdbd7596	-0.09250943
151	0xbe984388	-0.29739022
152	0x3f12f5fa	0.5740658
153	0xbddbc57f	-0.10731029
154	0xbdd5bf67	-0.10436898
155	0x3ea19cf5	0.3156506
156	0x3d46ea63	0.048563372
157	0x3f304de0	0.6886883
158	0x3e4ed497	0.20198284
159	0x3e04e1bb	0.12976734
160	0x3e1f5cd6	0.15562758
161	0x3d9efb62	0.07762791
162	0x3f90afaa	1.1303608
163	0x3ec3bedb	0.3823155
164	0x3eaae941	0.33381084
165	0xbe543c6e	-0.20726177
166	0xbf233522	-0.6375295
167	0xbeb502fc	-0.3535384
168	0xbf8a5641	-1.0807573
169	0xbf46ab53	-0.7760517
170	0x3cefbba6	0.029264282
171	0xbe59e1f1	-0.21277596
172	0x3d976009	0.07391364
173	0xbeaa8e68	-0.33311772
174	0xbe7063a4	-0.2347551
175	0xbc4c8ca5	-0.012484704
176	0xbf23ee46	-0.6403545
177	0x3df344ff	0.11878394
178	0xbf0eb9b7	-0.5575213
179	0xbd543630	-0.05180949
180	0x3e0935f9	0.13399495
181	0xbf05787c	-0.5213697
182	0x3e255202	0.16144565
183	0xbf14902e	-0.580325
184	0x3df9875c	0.12184021
185	0x3e555395	0.20832665
186	0x3d7c7339	0.061633322
187	0x3faf9373	1.3716873
188	0x3edadc5f	0.42746255
189	0x3f26c25a	0.65140307
190	0xbdbf9350	-0.093542695
191	0xbecb7c57	-0.397433
192	0x3ccc5eed	0.024947608
193	0xbf1ccda8	-0.61251307
194	0xbe2891a2	-0.16461805
195	0x3cb8f390	0.022577077
196	0xbe6d08e7	-0.23147927
197	0x3e8b42d0	0.2719941
198	0xbbb7b46b	-0.0056062243
199	0x3e856c28	0.2605908
200	0x3e81a536	0.25321358
201	0xbd9f06c2	-0.07764961
202	0x3eb3ee34	0.35142672
203	0xbebf2633	-0.3733383
204	0x3e373030	0.17889476
205	0x3e4b6d34	0.19865876
206	0xbeb0120f	-0.34388778
207	0xbeacf549	-0.33780888
208	0xbf3d2ba0	-0.7389469
209	0x3ab65b77	0.0013912757
210	0x3e729a09	0.23691572
211	0xbd9de668	-0.07709962
212	0x3f1de428	0.61676264
213	0x3e24d794	0.16097862
214	0x3f18de89	0.5971456
215	0x3e1f992c	0.15585774
216	0xbe8bff81	-0.27343372
217	0xbdc2df93	-0.095153
218	0xbe99627b	-0.29957947
219	0x3dc20dca	0.09475286
220	0x3bafc7d4	0.0053643975
221	0xbe41c395	-0.18922265
222	0x3e8cb6d8	0.2748325
223	0xbd650049	-0.055908475
224	0x3d83263e	0.064037785
225	0x3e00dd7f	0.12584494
226	0xbef5549e	-0.4791612
227	0xbf2952a8	-0.6614175
228	0x3ec1974a	0.37810737
229	0x3dbc41c8	0.09192234
230	0x3e61c0f9	0.2204627
231	0x3f20bf42	0.62791836
232	0xbf6663d8	-0.899961
233	0xbe5f1a57	-0.21787392
234	0x3e7bea7a	0.24601164
235	0xbed11017	-0.40832588
236	0x3ee2cdf9	0.4429777
237	0x3f8119ff	1.0086058
238	0xbf0cabbb	-0.5494954
239	0xbf295502	-0.66145337
240	0x3ea851d7	0.3287494
241	0xbf4bfa81	-0.79679114
242	0x3ece9697	0.40349266
243	0x3e509bad	0.20371886
244	0xbd234c97	-0.039867964
245	0xbe723b33	-0.23655395
246	0x3e679bc4	0.22618014
247	0x3e1aa020	0.15100145
248	0x3cde5244	0.027138837
249	0x3e92e0a7	0.2868702
250	0xbe24fa7b	-0.16111176
251	0xbe37b459	-0.17939891
252	0xbeb79b5e	-0.35860723
253	0x3f3172a2	0.6931554
254	0x3e596e23	0.2123342
255	0x3dff30c5	0.12460474

conv1.bias f4 [6]
0	0xbf461a04	-0.77383447
1	0xbe49b0b3	-0.19696312
2	0xbeee2cca	-0.46518546
3	0xbe26bbeb	-0.16282623
4	0xbe85100a	-0.259888
5	0x3eb109bc	0.3457774

conv2.weight f4 [16, 6, 5, 5]
0	0xbe01fc4b	-0.12693898
1	0xbd541596	-0.0517784
2	0xbd8f9653	-0.07011094
3	0xbdb75e56	-0.0895354
4	0xbdef11bb	-0.11673304
5	0x3b5f4f20	0.0034074262
6	0xbcbf1a6a	-0.023328025
7	0xbb8efd17	-0.0043636668
8	0xbd961540	-0.07328272
9	0xbde56b80	-0.112021446
10	0xbdac94e9	-0.0842684
11	0xbe0ce268	-0.13758242
12	0xbd7d423e	-0.06183075
13	0xbdbf95c6	-0.09354739
14	0xbc2ffe4f	-0.010741784
15	0xbdcd9546	-0.10038237
16	0xbd15142f	-0.0363962
17	0xbce34001	-0.02774048
18	0xbc6b69cf	-0.014368488
19	0xbb8ed04d	-0.0043583275
20	0xbce692af	-0.028146116
21	0xbd181365	-0.03712787
22	0xbe0a4dd3	-0.1350625
23	0xbdd862a2	-0.10565688
24	0xbe0bee52	-0.1366513
25	0xbd124edc	-0.035719737
26	0xbc098ad5	-0.008394917
27	0xbde49a3a	-0.11162229
28	0xbd6d6707	-0.057959583
29	0xbdeee737	-0.116651945
30	0xbe03ff57	-0.12890373
31	0xbd73f1a0	-0.059556603
32	0xbdbde7b6	-0.09272711
33	0xbdaa18bb	-0.08305498
34	0x3c873f8f	0.0165098
35	0xbd241d11	-0.040066782
36	0xbd4000cc	-0.04687576
37	0xbe005bff	-0.12535094
38	0x3ca1d602	0.019755367
39	0xbd0f77bf	-0.03502631
40	0xbd1d6d8a	-0.038434543
41	0xbb24deae	-0.0025157141
42	0xbc99c054	-0.018768467
43	0xbd9cca34	-0.07655755
44	0xbdf51412	-0.11966719
45	0xbd175d44	-0.03695418
46	0x3c8fd5fb	0.017558089
47	0xbd957ac6	-0.07298808
48	0xbd9fe869	-0.078080006
49	0x3c320499	0.010865354
50	0x3da87974	0.0822629
51	0x3a19bdaf	0.0005864752
52	0xbd3427cb	-0.043983262
53	0xbdad4321	-0.084600694
54	0x3ca12397	0.01967029
55	0xbab3913d	-0.0013699901
56	0xbcbecd02	-0.023291115
57	0xbdb2e0ef	-0.08734309
58	0xbde1b96b	-0.11021694
59	0x3cbc1c20	0.02296263
60	0xbddaa736	-0.10676424
61	0xbd8366c2	-0.06416084
62	0xbdb2d24c	-0.08731517
63	0xbde80257	-0.11328571
64	0xbdd6fad0	-0.104970574
65	0xbe105d75	-0.14098151
66	0xbcaf8632	-0.021426294
67	0xbcaae93a	-0.020863164
68	0xbdd5df60	-0.10442996
69	0x3c988057	0.018615885
70	0xbdd8a431	-0.10578192
71	0xbde9c394	-0.11414257
72	0xbdd41657	-0.103558235
73	0xbc5a376a	-0.013318876
74	0xbd5b4b8c	-0.053538844
75	0xbe2f20e7	-0.17102395
76	0xbc8fb766	-0.017543506
77	0xbdb3d043	-0.08779957
78	0xbc24d371	-0.010060177
79	0xbc8b9f6b	-0.01704379
80	0xbd6aa62b	-0.057287376
81	0x3b54f4f7	0.0032494643
82	0xbcd10038	-0.0255128
83	0xbcec19c9	-0.02882089
84	0x3c8ed871	0.017437192
85	0xbd9afd9b	-0.07567903
86	0xbd7a73c5	-0.061145563
87	0xbd008ff3	-0.03138728
88	0xbddd90f9	-0.10818667
89	0xbdb0deb1	-0.08636225
90	0xbdf3f548	-0.11912018
91	0xbd05f559	-0.032704685
92	0xbc31daf0	-0.010855421
93	0x3c817fc3	0.015807992
94	0x3b9f98f9	0.0048705307
95	0xbb925c38	-0.0044665597
96	0xbdb6da99	-0.08928413
97	0xbcc576c3	-0.024104482
98	0xbcc7622b	-0.024338802
99	0xbdd0d2f6	-0.101964876
100	0xbd0ff781	-0.035148147
101	0xbd1bb0c2	-0.038010366
102	0xbdce80d5	-0.100831665
103	0xbd68f256	-0.056871735
104	0xbd583544	-0.052785173
105	0xbd0dbe4c	-0.03460531
106	0x3c502819	0.0127048725
107	0xbd934cf2	-0.071924105
108	0x3c63ef9a	0.013912106
109	0xbe11a9ca	-0.14224926
110	0xbd248bb8	-0.04017231
111	0xbd7ad414	-0.06123741
112	0xbd013fe2	-0.031555064
113	0xbcfac88d	-0.030613208
114	0x3c40fba0	0.011778742
115	0xbcf918a0	-0.03040725
116	0x3c103dc0	0.008803785
117	0xbe015e64	-0.12633663
118	0xbe0d04eb	-0.13771407
119	0x3c6801c2	0.014160575
120	0x3c088ccc	0.00833435
121	0xbb4dcc41	-0.0031402262
122	0xbce1b1d8	-0.027550623
123	0xbdbe012f	-0.092775695
124	0xbc8e7ec9	-0.01739444
125	0xbdd5c9fb	-0.10438915
126	0xbd7339d0	-0.059381306
127	0xbd66fa53	-0.05639107
128	0x3c4d663b	0.012536581
129	0xbcfe1365	-0.031015107
130	0xbd985289	-0.07437617
131	0xbd2079d9	-0.039178703
132	0xbdb010e4	-0.08596972
133	0xbd091b15	-0.033473093
134	0xb9e16e79	-0.00042997653
135	0xbd846740	-0.06465006
136	0xbdc42365	-0.095770635
137	0xbe095e9d	-0.13414998
138	0x3c9d0d0d	0.019171262
139	0x3c691bad	0.01422779
140	0xbdfc8ec5	-0.123319186
141	0xbc82af85	-0.015952835
142	0xbdc7bcb3	-0.097527884
143	0xbe0322a9	-0.1280619
144	0xbdf6a45d	-0.120430686
145	0xbd88f600	-0.06687546
146	0x3c884426	0.016634058
147	0x3c970fca	0.018440146
148	0xbdc61641	-0.09672213
149	0xbdad5bba	-0.08464761
150	0xbe947553	-0.2899576
151	0xbf1d0043	-0.61328524
152	0x3ed8505e	0.42248815
153	0x3dad7889	0.08470256
154	0x3e6a915b	0.22907011
155	0xbea2f398	-0.31826472
156	0x3e02f8fe	0.12790295
157	0x3e822401	0.25418094
158	0xbddb4373	-0.10706224
159	0x3e337bb7	0.17527662
160	0x3de5e135	0.112245955
161	0xbedc2b7c	-0.43001926
162	0x3ddc3187	0.10751634
163	0x3dababa9	0.08382351
164	0xbe859710	-0.26091814
165	0x3e89b7f1	0.2689815
166	0xbe9051e2	-0.28187472
167	0xbe236494	-0.15956336
168	0xbeb1d88b	-0.34735522
169	0xbe31fbba	-0.17381182
170	0x3dc549a2	0.09633185
171	0xbe223e31	-0.15844037
172	0xbccde4d8	-0.025133535
173	0xbe172c8c	-0.14763087
174	0xbf3202c7	-0.6953549
175	0xbd0202b5	-0.031740863
176	0xbe9ee2a2	-0.31032282
177	0xbe9a8af1	-0.3018413
178	0xbecba731	-0.39775994
179	0xbf258f44	-0.6467173
180	0x3db8b1a0	0.09018254
181	0x3f01ef12	0.5075542
182	0xbd625f00	-0.05526638
183	0xbd9e8c72	-0.077416316
184	0xbe84f1d2	-0.25965744
185	0xbe0324a3	-0.12806945
186	0x3e7c4bcb	0.24638288
187	0x3d366c66	0.04453697
188	0xbe6db796	-0.23214564
189	0xbe735540	-0.23762989
190	0x3ace93fa	0.0015760653
191	0x3e575dab	0.21031825
192	0x3e3f0fed	0.18658419
193	0x3de56e38	0.11202663
194	0xbc7739dc	-0.015089478
195	0x3eb1f44e	0.34756702
196	0x3df0ab02	0.11751367
197	0x3e78cf7b	0.24297898
198	0x3ea2c23c	0.31788814
199	0x3d9f43ac	0.07776579
200	0xbed5679c	-0.4168061
201	0x3e6314fc	0.22175974
202	0x3e032bb4	0.1280964
203	0x3e468eb4	0.19390374
204	0xbe87e4ed	-0.26541844
205	0xbe37d07a	-0.17950621
206	0xbedde714	-0.4334036
207	0x3df10d31	0.11770094
208	0x3dee3637	0.116314344
209	0xbe18de9c	-0.14928669
210	0x3c91ff87	0.01782204
211	0x3e2c1869	0.16806187
212	0xbea7f8b1	-0.32806924
213	0xbe25a064	-0.16174465
214	0x3d999b3c	0.07500312
215	0x3e24ec91	0.16105868
216	0xbee49164	-0.44642174
217	0x3e69b423	0.22822623
218	0xbe54ca8b	-0.20780389
219	0x3ddb5a9a	0.1071064
220	0x3da79ca2	0.08184172
221	0x3dccf53a	0.10007711
222	0xbe2aa26a	-0.16663519
223	0xbdfec691	-0.12440217
224	0xbdba7a9f	-0.09105419
225	0x3d20348e	0.03911262
226	0xbd2798a4	-0.040917054
227	0xbd9478be	-0.07249592
228	0x3e437355	0.19086964
229	0xbdcacd60	-0.099024534
230	0x3cd41c75	0.025892476
231	0x3e6f8118	0.23389089
232	0xbc7d8ede	-0.015475957
233	0x3e802625	0.25029102
234	0xbe206587	-0.1566373
235	0x3f03dd8c	0.5150993
236	0x3e187f1f	0.14892243
237	0xbf072bcc	-0.52801204
238	0xbe416a5b	-0.18888228
239	0xbeac2940	-0.3362522
240	0xbe103eeb	-0.14086501
241	0x3e918ec8	0.28429246
242	0xbe4cdae8	-0.20005381
243	0xbe538596	-0.20656428
244	0xbeac2a77	-0.33626148
245	0x3e920e88	0.2852671
246	0x3ed7a1b9	0.42115572
247	0x3d9e49aa	0.07728894
248	0x3ef8820e	0.48536724
249	0xbd9dbc9a	-0.077019885
250	0x3eb0db7d	0.34542456
251	0x3eccea2c	0.4002241
252	0x3d2ecec6	0.042677663
253	0xbbccc34a	-0.006248866
254	0xbcf97645	-0.030451903
255	0x3e96e12e	0.29468673

conv2.bias f4 [16]
0	0xbdd0b5aa	-0.101909
1	0x400e28a5	2.2212307
2	0xbd1e7e10	-0.03869444
3	0xbf4b4bae	-0.79412353
4	0xbe0f4ca9	-0.13994087
5	0xbdb213e4	-0.086952
6	0xbd29a669	-0.041418467
7	0xbec6f8cb	-0.3886169
8	0xbe2fbfed	-0.17163058
9	0xbe195a01	-0.1497574
10	0xbd3ef66a	-0.046621718
11	0xbdbc1a73	-0.09184732
12	0xbe92f7ce	-0.28704685
13	0xbd653ce2	-0.055966265
14	0xbe5855b6	-0.21126446
15	0x3ed3e976	0.41389054

fc1.weight f4 [120, 400]
0	0xbda58498	-0.08081931
1	0xbd244051	-0.0401004
2	0xbdd52836	-0.1040806
3	0xbd0c9397	-0.03432044
4	0xbd698a64	-0.057016745
5	0xbdad2cbb	-0.08455797
6	0xbd92271f	-0.07136368
7	0xbd442493	-0.047886442
8	0xbc3bc3bd	-0.011460242
9	0xbdc2dfeb	-0.09515365
10	0x3d942c24	0.07234982
11	0x3d2675bc	0.040639624
12	0xbc0f3996	-0.008741757
13	0xbdb070dc	-0.08615276
14	0xbdbd72cf	-0.092504136
15	0xbd730b2e	-0.059336834
16	0xbd50ed8f	-0.051007804
17	0xbcd10a49	-0.0255176
18	0xbd8745ce	-0.06605111
19	0xbd62f054	-0.055404976
20	0xbc2482f8	-0.010040991
21	0xbd747dfe	-0.059690468
22	0xbdac9017	-0.084259205
23	0xbdcdccb4	-0.1004881
24	0xbdb65bb3	-0.08904209
25	0xbdca7704	-0.09885982
26	0xbe241f97	-0.16027676
27	0xbd9080b6	-0.070558
28	0xbdd06e26	-0.10177259
29	0xbdbf0683	-0.09327414
30	0xbe07c5ce	-0.1325905
31	0xbd039b33	-0.03213043
32	0xbd8accbd	-0.06777332
33	0xbd9877ba	-0.07444711
34	0xbcde8802	-0.027164463
35	0xbd9a0077	-0.0751962
36	0xbcaedf52	-0.021346722
37	0x3cb399fc	0.021924011
38	0x3ce47e29	0.02789219
39	0xbd45e3bb	-0.048312884
40	0x3ce01ad7	0.027356548
41	0x3a142b4d	0.0005652204
42	0xbdafeabc	-0.08589694
43	0x3d2b660c	0.041845366
44	0xbcfc598b	-0.030804416
45	0xbcd4b09b	-0.025963118
46	0xbd66ce60	-0.05634916
47	0xbe07d25b	-0.13263838
48	0xbdb7159e	-0.0893967
49	0xbd765cac	-0.060146973
50	0xbd973550	-0.073832154
51	0xbd66f251	-0.056383435
52	0x3d009edd	0.031401504
53	0x3d9b2369	0.07575113
54	0x3bd0f0f3	0.0063763796
55	0xbd9a650d	-0.07538805
56	0xbcbe18ac	-0.023205124
57	0x3cf5e186	0.030014765
58	0x3d70e9d8	0.05881676
59	0xbc03b797	-0.008039377
60	0xbcf6a06f	-0.030105798
61	0xbdf0aeb5	-0.11752073
62	0xbd8dbaa1	-0.06920362
63	0xbbc8682e	-0.006115935
64	0x3c257079	0.010097616
65	0x3c3d5ac1	0.011557282
66	0x3df917b0	0.12162721
67	0x3d82df6b	0.0639027
68	0x3d4e3a9e	0.05034887
69	0xbd44caf7	-0.048045125
70	0x3d8c09b0	0.06837785
71	0x3c395192	0.011310952
72	0x3d02defb	0.031950932
73	0xbd52e56f	-0.051488336
74	0xbdaad4d2	-0.083413735
75	0xbd83a533	-0.064279936
76	0xbd0aad82	-0.033856876
77	0xbc4c95b1	-0.012486861
78	0xbd7f281c	-0.06229411
79	0xbd25212c	-0.04031484
80	0xbce72552	-0.028216038
81	0xbd8d2fe5	-0.06893901
82	0xbd3cff32	-0.04614181
83	0xbc897eee	-0.016784158
84	0xbd449ff8	-0.04800412
85	0x3cf23014	0.029563941
86	0xbd3894ad	-0.045063663
87	0xbddbb68f	-0.1072818
88	0xbd1e9cc1	-0.03872371
89	0xbda0d807	-0.07853704
90	0xbd496864	-0.04917182
91	0xbd5d5447	-0.05403545
92	0xbd4071ba	-0.046983458
93	0xbd29a8b4	-0.041420653
94	0xbdc46a0d	-0.0959054
95	0x3d9f5cee	0.07781397
96	0xbc81fa54	-0.015866436
97	0xbd18db1a	-0.037318327
98	0xbcd59d9e	-0.026076134
99	0x3dbedcbe	0.09319447
100	0xbe14c897	-0.14529644
101	0xbdf1505b	-0.11782905
102	0xbdfeb327	-0.12436514
103	0xbd1d4827	-0.038398888
104	0xbdb8fab8	-0.09032196
105	0xbdf3660c	-0.11884698
106	0xbd78f404	-0.060779586
107	0x3bb7c639	0.005608347
108	0xbd84f18f	-0.06491386
109	0xbdc488b2	-0.09596385
110	0xbe00a577	-0.1256312
111	0xbdbf016a	-0.093264416
112	0xbd819797	-0.063277416
113	0xbe1ee465	-0.15516813
114	0xbd7039aa	-0.058648743
115	0xbe18155a	-0.14851895
116	0xbe386bfb	-0.18009941
117	0xbdafcb08	-0.08583647
118	0xbdfdb5c1	-0.123881824
119	0xbdf9ea49	-0.122028895
120	0xbe080595	-0.1328338
121	0xbdd3aeb9	-0.1033606
122	0xbe0a8010	-0.13525414
123	0xbe3b9e3d	-0.18322082
124	0xbe23362b	-0.15938632
125	0xbd993bab	-0.07482084
126	0x3e0c4fed	0.13702364
127	0x3da73976	0.08165257
128	0x3d9148f7	0.07093995
129	0xbce44416	-0.027864497
130	0xbc46441f	-0.012101202
131	0x3d81bb9e	0.06334613
132	0x3cdfb836	0.027309518
133	0x3d7460eb	0.05966274
134	0x3cddd24d	0.027077818
135	0x3ddf27cd	0.10896263
136	0x3daf36c6	0.08555369
137	0x3dae4996	0.08510129
138	0x3cf4e2cd	0.029893303
139	0xbd6d20cc	-0.057892606
140	0x3dcdc883	0.1004801
141	0x3d9624b9	0.07331223
142	0x3c9b266c	0.01893922
143	0x3dee45ea	0.11634429
144	0xbb937e08	-0.004501108
145	0x3d2364b7	0.03989097
146	0x3d6417a7	0.05568662
147	0xbdf68591	-0.120371945
148	0x3ccc3ed6	0.024932306
149	0xbdfbb4ee	-0.12290369
150	0x3da25f60	0.079283476
151	0x3dbb1cb2	0.091363326
152	0x3d5495f3	0.051900815
153	0x3ca4426f	0.02005121
154	0x3c8cf72c	0.017207704
155	0xbd88134f	-0.06644308
156	0xbd157886	-0.036491893
157	0x3d35d658	0.044393867
158	0x3dcc3d51	0.09972633
159	0x3d04e489	0.03244451
160	0xbc869364	-0.016427703
161	0xbd88e82a	-0.06684907
162	0x3c87df03	0.016585832
163	0x3dcd26c9	0.10017163
164	0x3db2b7e7	0.08726483
165	0xbca75a32	-0.02042875
166	0x3de67750	0.11253226
167	0x3d1a6a9d	0.03769933
168	0x3d98207c	0.07428071
169	0x3d9c5898	0.076340854
170	0x3d13ace5	0.036053557
171	0x3db473e8	0.0881117
172	0x3c9f205f	0.019424615
173	0xbdf4627b	-0.11932846
174	0xbd879d86	-0.06621842
175	0xbd57ec1f	-0.052715417
176	0x3b88f9b2	0.0041801566
177	0x3da32a4a	0.079670504
178	0x3dbee02d	0.09320102
179	0x3d98ea74	0.074665934
180	0xbdb8a243	-0.09015324
181	0x3d63fb41	0.055659536
182	0x3cd27411	0.02569011
183	0x3dc550a8	0.096345246
184	0xbc98efe8	-0.018669084
185	0xbdafc809	-0.085830756
186	0xbdb701d1	-0.08935893
187	0x3c01d204	0.007923607
188	0x3d40f4d7	0.047108497
189	0x3dbc9185	0.09207443
190	0xbd6dc36a	-0.05804769
191	0xbd4a37f9	-0.049369786
192	0xbda4b79d	-0.08042834
193	0xbd954daf	-0.072902076
194	0x3d87979c	0.06620714
195	0xbc9a5144	-0.018837579
196	0xbd356fd5	-0.044296104
197	0xbdc83f89	-0.09777743
198	0xbd74793f	-0.05968594
199	0xbd6415d7	-0.05568489
200	0xbda3edee	-0.08004366
201	0x3c2d8c1b	0.010592486
202	0x3d0e2812	0.034706183
203	0x3cfb3277	0.030663712
204	0xbc92a022	-0.017898623
205	0xbdb00d37	-0.085962705
206	0xbd32e673	-0.043676805
207	0x3d02b921	0.031914834
208	0x3d9d491b	0.076799594
209	0x3d940546	0.07227568
210	0xbcbaf18d	-0.022820259
211	0xbdcbc611	-0.099498875
212	0xbd84fff7	-0.06494134
213	0xbdccecbd	-0.10006092
214	0x3d66f45d	0.056385387
215	0xbd7db8f7	-0.061943974
216	0x3d8ab9f6	0.067737505
217	0x3d5699d1	0.052392785
218	0xbcf6948b	-0.030100128
219	0x3dd2950f	0.10282337
220	0xbc69e6b5	-0.014276196
221	0xbdb2d068	-0.087311566
222	0x3d7f4e5d	0.062330592
223	0xbd35798c	-0.04430537
224	0x3d81601a	0.06317158
225	0xbd38b1f6	-0.04509159
226	0xbd98cfbc	-0.07461497
227	0xbd84164d	-0.06449566
228	0xbd51d0e1	-0.051224593
229	0xbc976aa3	-0.018483466
230	0xbd1c5332	-0.03816528
231	0xbc81c641	-0.015841605
232	0xbd8ff2d1	-0.070287354
233	0xbc434b5e	-0.011919824
234	0xbdc308ea	-0.095231846
235	0xbdc5eb8a	-0.09664066
236	0xbd35fe9d	-0.04443227
237	0xbdc82ab0	-0.09773767
238	0xbc51aed9	-0.012798035
239	0xbce7e5b1	-0.028307768
240	0xbd3fafa3	-0.04679836
241	0xbd21c7c8	-0.039497167
242	0xbc881ceb	-0.016615352
243	0xbcf4ad14	-0.029867686
244	0xbcec9c78	-0.028883204
245	0xbd1dffbc	-0.038573965
246	0xbd4e4678	-0.050360173
247	0xbdb5648a	-0.08857067
248	0xbd5b41f6	-0.053529702
249	0xbdd444aa	-0.10364659
250	0x3d6547fc	0.055976853
251	0x3dc1acbd	0.09456775
252	0x3e2424cb	0.1602966
253	0x3db0104f	0.085968606
254	0x3d519a88	0.051172763
255	0x3b8d5dd5	0.004314164

fc1.bias f4 [120]
0	0xbdb26415	-0.087104954
1	0xbf95eeb3	-1.171347
2	0x3dd69eb4	0.10479489
3	0xbfd08a1c	-1.6292148
4	0xbdb9679b	-0.09052964
5	0xbdb627b1	-0.08894289
6	0xbd3dab09	-0.04630569
7	0xbda0aa9c	-0.07845041
8	0xc00566d4	-2.0844011
9	0x4063ef1d	3.5614693
10	0xbe10e769	-0.14150776
11	0xbdbd9138	-0.09256214
12	0x3f72845b	0.9473321
13	0xbe89f303	-0.26943216
14	0xbecff710	-0.4061818
15	0x3fe3f465	1.7808958
16	0xbd9ca3b8	-0.076484144
17	0xbd8a7a1e	-0.06761573
18	0xbd43b37f	-0.047778603
19	0xbdd0124a	-0.10159738
20	0xbddfaa03	-0.10921099
21	0xbca2c393	-0.019868648
22	0xbe15d963	-0.14633708
23	0xbcf3fef5	-0.029784659
24	0xc005ae9e	-2.0887828
25	0xb9910ed1	-0.00027667594
26	0x3fc1dece	1.514612
27	0x402ae5cf	2.6702764
28	0xbe881466	-0.26578063
29	0xbd5f9eec	-0.05459492
30	0xbd59399b	-0.053033452
31	0x3f3b28f2	0.7310935
32	0xbfa155ee	-1.2604349
33	0x3edc6404	0.43045056
34	0x3fb112fc	1.3833919
35	0x3ed245ff	0.41069028
36	0xbcdb16f8	-0.02674435
37	0xc01f393a	-2.4878678
38	0xbc961421	-0.018320145
39	0xbef56836	-0.4793107
40	0xbef485f9	-0.47758463
41	0xbd50f8de	-0.05101859
42	0xbdc705a5	-0.097178735
43	0xbddce683	-0.10786154
44	0xbef43739	-0.47698382
45	0xbd8654d8	-0.065591514
46	0x4048947c	3.1340628
47	0x3fc66848	1.5500574
48	0xbe01b607	-0.12667094
49	0x406b6ee0	3.6786423
50	0xbdc367b6	-0.09541266
51	0xbd9e4e8b	-0.07729825
52	0xc0024f00	-2.0360718
53	0xbdb44f25	-0.08804158
54	0xbc9910d4	-0.018684782
55	0x3f205a35	0.62637645
56	0xbcab22a4	-0.020890541
57	0x40143f4d	2.3163636
58	0xbd5aef80	-0.05345106
59	0xbfdb5eb3	-1.7138275
60	0xbd8aa6b6	-0.06770079
61	0xbe083f2d	-0.1330535
62	0x3e4fbd7a	0.20287123
63	0xbcdb7186	-0.02678753
64	0xbd82b64d	-0.06382427
65	0x3fcb6e21	1.5892984
66	0xc03fdaf0	-2.997738
67	0x4019d675	2.4037144
68	0xbd919b8c	-0.07109746
69	0xbfac636a	-1.3467839
70	0xbd4a89d9	-0.049447868
71	0xbf4bf9f3	-0.7967827
72	0xbdf433f8	-0.11923975
73	0xbfe569f8	-1.7922964
74	0xbccadc45	-0.024763236
75	0xbe160d8e	-0.14653608
76	0xbdca6439	-0.09882397
77	0x3f7fef01	0.99974066
78	0xc00b54c0	-2.1770477
79	0xbd2ddcf5	-0.04244705
80	0xbee0f7af	-0.43938968
81	0x4061720e	3.5225863
82	0x3ff09c72	1.8797743
83	0xbd7692f1	-0.060198728
84	0xbdc5c20c	-0.09656152
85	0xbf4ffc38	-0.8124423
86	0xbf115143	-0.5676462
87	0x400b861b	2.1800601
88	0xbdbc4f1b	-0.09194776
89	0xbcee32ba	-0.029076923
90	0xbed78b13	-0.42098293
91	0xbc8b3159	-0.016991304
92	0x3f07eadc	0.5309274
93	0xbd11ce00	-0.035596848
94	0x3f1bbf7c	0.60839057
95	0xbda4ed20	-0.080530405
96	0xbf735aec	-0.9506061
97	0xbd46830a	-0.048464812
98	0xbdde053a	-0.10840841
99	0xbdbd06fa	-0.09229846
100	0x3e0b9d95	0.13634332
101	0xbd39e78b	-0.045386832
102	0x3ef89c7e	0.48556894
103	0xbd90e4cd	-0.0707489
104	0xbc859cc7	-0.016310109
105	0xbcb1fc3f	-0.021726726
106	0x406f6c8b	3.741
107	0x4021e3b6	2.5295234
108	0xbdcd2490	-0.10016739
109	0xbf7b8750	-0.98253345
110	0xbc86a9e5	-0.016438434
111	0x3ae76a70	0.0017655622
112	0xbd7b8a83	-0.061411392
113	0x3f8e9b27	1.1141099
114	0xbda7c960	-0.08192706
115	0x3e7bb735	0.24581607
116	0xbd28b982	-0.04119254
117	0x402d4c8b	2.7077968
118	0x3ec1732a	0.37783176
119	0xbe0149a5	-0.1262575

fc2.weight f4 [84, 120]
0	0xbe15c5ba	-0.14626208
1	0x3dfac2ca	0.12244184
2	0xbd27652a	-0.040867962
3	0x3e183b37	0.14866339
4	0x3cef5074	0.029213168
5	0x3d8f227a	0.06988998
6	0xbda521fe	-0.08063124
7	0xbd84cd54	-0.06484476
8	0x3d67e298	0.05661258
9	0xbf3241c7	-0.6963162
10	0x3dadebd6	0.08492248
11	0x3cb5b268	0.022179797
12	0xbfafe4cf	-1.3741702
13	0xbc0a1e71	-0.008430109
14	0x3e094de1	0.13408615
15	0xbcf0b430	-0.029382795
16	0x3d151cb8	0.03640434
17	0xbd91d0bf	-0.07119893
18	0x3d95ad74	0.07308474
19	0x3ce56014	0.027999915
20	0xbd974608	-0.07386404
21	0x3d96e932	0.07368697
22	0x3cc4957b	0.02399706
23	0x3ca8a7c8	0.020587817
24	0xbf8f0ef9	-1.1176444
25	0x3cbbfcc0	0.022947669
26	0xbe91acae	-0.28452057
27	0xbf0fa4d1	-0.56110865
28	0xb9a13c56	-0.00030753267
29	0x3d65cf48	0.056105882
30	0xbc95bb80	-0.018277884
31	0x3dba866d	0.09107671
32	0xbf697099	-0.91187435
33	0x3ea54365	0.3227798
34	0x3e824f8e	0.2545132
35	0x3d17811c	0.036988363
36	0x3d018694	0.031622484
37	0xbf71323d	-0.9421728
38	0x3d0a012a	0.033692516
39	0xbf052891	-0.52015024
40	0xbfdc5161	-1.7212335
41	0xbd8b8d92	-0.06814112
42	0x3d93411f	0.07190155
43	0xbd96e542	-0.07367946
44	0x3ee7cb0e	0.45272106
45	0xbd67d114	-0.056595877
46	0x3ec7b50b	0.39005312
47	0x3d1d762d	0.03844278
48	0x3d61b01c	0.05509959
49	0x3d3682aa	0.044558205
50	0x3d429448	0.047504693
51	0x3c0a4308	0.008438833
52	0xbe086605	-0.13320167
53	0xbc8e5424	-0.017374106
54	0x3d8cb794	0.06870952
55	0x3e453f20	0.19262362
56	0x3d844046	0.06457572
57	0x3e81f797	0.2538421
58	0x3d53a304	0.051669136
59	0xbec53628	-0.3851788
60	0xbd87cb0a	-0.066305235
61	0x3eecb342	0.46230513
62	0xbef9bf10	-0.48778582
63	0x3cc1a9dc	0.023640566
64	0x3b81f850	0.0039663687
65	0xbd736c29	-0.05942932
66	0xbe2a0746	-0.16604337
67	0xbeb4cc4b	-0.35312113
68	0xbd5029ea	-0.050821222
69	0xbe69b77b	-0.22823898
70	0xbd74c719	-0.059760187
71	0x3cb0c540	0.021578431
72	0x3d21cabc	0.039499983
73	0xbf1274e5	-0.57209617
74	0x3d6c5ba8	0.057704598
75	0xbd18813e	-0.03723263
76	0xba18e180	-0.0005831942
77	0xbebd9ac7	-0.37032148
78	0xbf301b6a	-0.6879183
79	0xbc8e6f20	-0.017386973
80	0xbf0c500c	-0.5480964
81	0x3da3d1ca	0.079989985
82	0xbf1654d4	-0.5872319
83	0xbd436f7d	-0.047713745
84	0x3d499210	0.04921156
85	0xbdf6a030	-0.12042272
86	0xbe6d1e24	-0.23156029
87	0xbcdc6cfd	-0.026907438
88	0x3cf06bf4	0.029348351
89	0x3d8e3a88	0.06944758
90	0xbf140eb8	-0.5783496
91	0xbd2aed10	-0.041729987
92	0xbf2d3d07	-0.67671245
93	0xbd130d2d	-0.035901237
94	0x3e7ba800	0.24575806
95	0xbd16b1f0	-0.03679079
96	0x3ed8a4cc	0.4231323
97	0x3d6113dc	0.05495058
98	0xbd69aca3	-0.057049405
99	0xbd9c4d25	-0.07631902
100	0xbd96490c	-0.07338151
101	0x3d18db70	0.037318647
102	0xbf0ec66f	-0.55771536
103	0x3caa962c	0.02082356
104	0x3d7d15a0	0.0617882
105	0xbbafac40	-0.00536111
106	0x3ec237a4	0.37933075
107	0x3d68ba80	0.056818485
108	0x3d97840c	0.07398233
109	0xbd9ea6fe	-0.07746695
110	0xbdb81ae6	-0.089895055
111	0xbd226d77	-0.039655175
112	0x3d4e3734	0.050345615
113	0xbd3df471	-0.046375696
114	0x3d8ee5be	0.069774136
115	0xbec546a0	-0.38530445
116	0xbdabb8f4	-0.083848864
117	0xbf07c49b	-0.5303437
118	0xbf1131d6	-0.5671667
119	0xbeccc38a	-0.39992934
120	0x3cc236b5	0.023707727
121	0xbe32a328	-0.17445052
122	0xbe052198	-0.13001096
123	0xbd8b545c	-0.068032
124	0xbc1c9445	-0.009556835
125	0xbd724f5c	-0.059157714
126	0x3baaad00	0.0052086115
127	0xbd55a123	-0.052155625
128	0xbdbb5721	-0.09147478
129	0xbe165582	-0.14681056
130	0x3d92f202	0.071750656
131	0xbd3c43a9	-0.045962963
132	0xbd3e4af9	-0.04645822
133	0xbe161ea8	-0.14660132
134	0xbbcdb124	-0.0062772203
135	0xbd37a0b7	-0.044831004
136	0x3d59706c	0.05308573
137	0xbcaf5630	-0.021403402
138	0x3c8a1cec	0.016859494
139	0xbd963de0	-0.073360205
140	0xbcbca9e0	-0.023030221
141	0xbd1e651f	-0.038670655
142	0x3db2d6f6	0.08732407
143	0x3d2c6b9c	0.04209481
144	0x3ca431e6	0.020043325
145	0x3c4e28a3	0.012582931
146	0xbc7b0386	-0.015320664
147	0xbc917db4	-0.017760135
148	0x3d8c1dd8	0.0684163
149	0x3d49e7b8	0.04929325
150	0x3d850ca8	0.064965546
151	0x3b05a8ea	0.002039487
152	0xbd76ac4b	-0.060222905
153	0xbdf15b70	-0.117850184
154	0x3ac4a240	0.0015001968
155	0x38d9f7d3	0.00010393527
156	0x3c785c3c	0.015158709
157	0xbe366229	-0.17810883
158	0xbbdb455a	-0.006691617
159	0xbe98119c	-0.29700935
160	0xbdada33e	-0.084784016
161	0x3ca0e358	0.019639656
162	0xbde18002	-0.11010744
163	0xbd7a1cf6	-0.061062776
164	0xbd9f4dcf	-0.07778513
165	0xbd1e447c	-0.03863953
166	0xbc3b5e6b	-0.011436085
167	0xbe0bda73	-0.1365755
168	0x3e0b5f53	0.13610582
169	0xbe9e1a11	-0.30879262
170	0xbdb56e85	-0.088589706
171	0xbd24a479	-0.040195916
172	0xbd311c43	-0.043239843
173	0xbdb9882d	-0.090591766
174	0xbcd10f9c	-0.025520138
175	0xbd0d4bdf	-0.034496184
176	0x3d8d5460	0.06900859
177	0xbd092896	-0.03348597
178	0x3c64fdf0	0.013976559
179	0x3c2d9deb	0.010596733
180	0x3d1a94d0	0.037739575
181	0xbdcf1f47	-0.101133876
182	0xbe9398dc	-0.2882756
183	0xbb405960	-0.0029350147
184	0x3daf2474	0.08551875
185	0xbd6ee679	-0.058325265
186	0xbd9795c4	-0.074016124
187	0xbd109a42	-0.03530336
188	0xbd027c55	-0.031856854
189	0xbc441855	-0.011968692
190	0xbdb77fcd	-0.08959923
191	0xbe1172b5	-0.14203914
192	0x3dac4ea8	0.0841344
193	0xbe08547e	-0.13313481
194	0x3da18772	0.07887162
195	0xbcba36c8	-0.0227312
196	0x3d3cc22c	0.046083614
197	0xbdaf81ac	-0.08569655
198	0xbd7d5249	-0.06184605
199	0xbd065aa9	-0.032801304
200	0xbe3553c5	-0.17707737
201	0xbd3146b6	-0.043280326
202	0xbde21899	-0.11039848
203	0xbd66192d	-0.056176353
204	0x3c126c40	0.008936942
205	0x3aa6957f	0.0012709348
206	0xbcfcf9a4	-0.030880757
207	0xbe3ab0b4	-0.1823147
208	0x3cee2210	0.029068977
209	0xbdb68c51	-0.08913482
210	0xbda6fffd	-0.08154295
211	0xbd980738	-0.07423252
212	0xbd17e91f	-0.037087556
213	0xbbf9c39b	-0.007622195
214	0xbdaefc7e	-0.08544253
215	0xbd4c178d	-0.049827147
216	0xbe171872	-0.14755419
217	0x3c047b20	0.008085996
218	0x3d8ee79a	0.06977768
219	0x3d97e8e0	0.07417464
220	0xbd800bcf	-0.06252252
221	0xbd078664	-0.03308715
222	0xbd94382d	-0.07237277
223	0x3b5b7092	0.0033483845
224	0xbcee2ae6	-0.02907319
225	0x3ca53efc	0.020171635
226	0xbd063a03	-0.032770168
227	0xbe887995	-0.2665526
228	0xbdcf68c8	-0.10127407
229	0xbc789408	-0.015172012
230	0xbd85a9ff	-0.06526565
231	0xbbda12d1	-0.006655075
232	0xbd810a40	-0.06300783
233	0xbe3b7205	-0.18305214
234	0x3c6c0038	0.014404349
235	0x39e12a19	0.0004294671
236	0x3d30e7c0	0.043189764
237	0xbdb846fc	-0.08997914
238	0xbc1d2af9	-0.009592765
239	0xbd385904	-0.045006767
240	0xbe04ab8f	-0.1295607
241	0x3e4e37e3	0.20138507
242	0xbd92154f	-0.071329705
243	0xbd21955f	-0.039449092
244	0x3cb5a6c8	0.022174254
245	0x3cce0730	0.025149912
246	0x3d3b39b0	0.045709312
247	0xbd5930d5	-0.053025085
248	0xbf34ce0a	-0.7062689
249	0xbbf9b5d6	-0.0076205535
250	0x3e044e75	0.12920554
251	0x3d072936	0.032998286
252	0x3df014eb	0.1172274
253	0x3e0b541a	0.13606301
254	0x3d6c0374	0.05762048
255	0xbe64c447	-0.22340499

fc2.bias f4 [84]
0	0xbfd18413	-1.6368431
1	0xbe36325d	-0.1779265
2	0x3fb6b42d	1.4273735
3	0xbfbbfbea	-1.4686253
4	0xbe267449	-0.16255297
5	0xbd6a83a8	-0.057254463
6	0xbf7b6294	-0.98197293
7	0xbf8ef074	-1.116713
8	0xbf407a63	-0.7518675
9	0x3f6207f0	0.8829336
10	0xbeea9fd9	-0.4582508
11	0xbeebb85f	-0.460391
12	0xbe9ee129	-0.3103116
13	0xbef89359	-0.48549917
14	0xbf231669	-0.6370607
15	0xbef7643b	-0.48318657
16	0xbf7abcc1	-0.97944266
17	0xbfa02067	-1.2509888
18	0x3f41c1fb	0.75686616
19	0xbea30838	-0.31842208
20	0xbf6aa205	-0.9165347
21	0xbf71d5d8	-0.94466925
22	0xbe65ce1a	-0.22441903
23	0xbf72a306	-0.94780004
24	0xbf11944d	-0.56866914
25	0xbfd86660	-1.6906242
26	0x40255857	2.5835168
27	0x3f41763a	0.75571024
28	0xbe6638de	-0.2248263
29	0xbca94977	-0.020664914
30	0xbf534671	-0.8252936
31	0x3e39da3c	0.18149656
32	0x3f8de1d6	1.1084545
33	0xbf693e86	-0.9111103
34	0x40899fa5	4.300738
35	0x3f9d410f	1.2285479
36	0xbeb3d191	-0.35120824
37	0x4057ab3b	3.369826
38	0x408a2985	4.3175683
39	0x3f500434	0.81256413
40	0xbf4181b9	-0.75588566
41	0xbfadcec3	-1.3578724
42	0x4007bae8	2.1207829
43	0xbeba1e96	-0.3635146
44	0x40490cc1	3.1414034
45	0x3e8322f3	0.25612602
46	0xbf177c89	-0.591744
47	0xbf8d3c74	-1.1034074
48	0xbeaf55be	-0.34245104
49	0xbf8e3716	-1.1110561
50	0xbd5e1010	-0.054214537
51	0x3ea40446	0.3203451
52	0xbf8c46a4	-1.0959058
53	0xbf2ec388	-0.68267107
54	0xbfc4da12	-1.537905
55	0xbf1b80fa	-0.6074368
56	0xbfee6e26	-1.8627365
57	0xbfa1b1fa	-1.2632439
58	0xbfd29589	-1.6451885
59	0x3f7fb187	0.9988026
60	0xbecf0d8f	-0.40440032
61	0xbf778c83	-0.9669878
62	0xbea7c29d	-0.32765666
63	0x3f8e64ef	1.1124552
64	0xbff7dbd1	-1.9363958
65	0xbeca34fe	-0.39493555
66	0x3fd19fa6	1.6376846
67	0xbf8c7206	-1.0972297
68	0xbfd8ff67	-1.6952943
69	0xbf894b37	-1.0726079
70	0x3f5e6f04	0.86888146
71	0x3f620e27	0.88302845
72	0xbf784c84	-0.96991754
73	0x3f872494	1.0558038
74	0xbda602af	-0.081059806
75	0xbe1c457c	-0.15260881
76	0xbe12fc04	-0.14353949
77	0xbf49f05f	-0.788824
78	0xbe9857f5	-0.29754606
79	0xbe6cd6dc	-0.23128837
80	0xbe696a4d	-0.22794457
81	0xbec823c4	-0.39089787
82	0xbfb6c9dc	-1.4280353
83	0xbf75877b	-0.9590985

fc3.weight f4 [10, 84]
0	0x3df95743	0.12174847
1	0xbb4d40d4	-0.0031319158
2	0xbe81b328	-0.25331998
3	0x3d2b097d	0.041757096
4	0xbdf8d5a3	-0.12150123
5	0x3c858557	0.016298933
6	0xbe006a62	-0.12540582
7	0xbf8b8d19	-1.0902435
8	0xbe0da79a	-0.13833466
9	0xbe0b8927	-0.13626538
10	0xbd7cf10a	-0.06175331
11	0xbe9958e2	-0.29950625
12	0xbe721fe6	-0.23644981
13	0xbd956ece	-0.07296525
14	0xbf89ac07	-1.0755624
15	0xbe1f122e	-0.15534279
16	0xbe446058	-0.19177377
17	0xbf072f77	-0.528068
18	0xbc582f57	-0.01319488
19	0x3db0a184	0.08624557
20	0xbe101045	-0.14068706
21	0x3cd9b7c8	0.026576892
22	0xbc089486	-0.008336192
23	0xbf06c4eb	-0.5264422
24	0xbea0537d	-0.31313697
25	0xbe68d2f3	-0.2273672
26	0xbd903d36	-0.07042925
27	0xbce2f019	-0.027702378
28	0xbd53d8ae	-0.051720314
29	0x3d1f574e	0.03890162
30	0xbf1ab82b	-0.6043727
31	0xbeb4a721	-0.3528376
32	0xbd1d8a44	-0.03846194
33	0xbeae0fd1	-0.33996442
34	0x3c055beb	0.008139591
35	0x3d133565	0.035939593
36	0xbe40b674	-0.188196
37	0x3dae5589	0.08512408
38	0x3da6658a	0.08124836
39	0x3d11160b	0.035421412
40	0x3c214408	0.00984288
41	0xbf9815b9	-1.1881629
42	0x3ca0e383	0.019639736
43	0xbe02736e	-0.12739345
44	0xbe78e387	-0.24305545
45	0xbd21d161	-0.03950632
46	0xbda2e168	-0.07953149
47	0xbe281c35	-0.1641701
48	0xbe8b3c96	-0.2719466
49	0xbf3f36e1	-0.74693114
50	0x3cc4a27d	0.024003262
51	0x3d2fd667	0.04292908
52	0xbeb3e696	-0.3513686
53	0xbe0e6e62	-0.13909295
54	0xbf092cd0	-0.53584003
55	0xbe2501ed	-0.16114016
56	0xbf2593c9	-0.6467863
57	0xbe663d1a	-0.22484246
58	0xbf1b7ed0	-0.60740376
59	0xbc6249d6	-0.013811549
60	0xbe88da72	-0.2672916
61	0xbfc44868	-1.5334597
62	0xbe194119	-0.14966239
63	0xbcd0dd11	-0.025496038
64	0xbf530ba4	-0.8243964
65	0xbeac5e48	-0.3366568
66	0x3d164447	0.036686208
67	0xbccabe78	-0.024749026
68	0xbfc77f93	-1.5585808
69	0x3e37a610	0.17934442
70	0xbd81cd18	-0.06337947
71	0x3e38977e	0.1802654
72	0xbd0d745f	-0.03453481
73	0x3e03e17b	0.12878983
74	0xbeb5850b	-0.35453066
75	0x3d37cc58	0.04487261
76	0x3e21d930	0.15805507
77	0xbfbbbb13	-1.4666466
78	0xbcbca89c	-0.023029618
79	0xbc84bc80	-0.016203165
80	0x3de97aca	0.11400373
81	0xbe042d5a	-0.12907925
82	0xbf26e958	-0.65199804
83	0xbf012d7d	-0.50460035
84	0xbe165349	-0.14680208
85	0x3ca9ccb8	0.0207275
86	0xbcfee9d7	-0.031117363
87	0xbdbd644a	-0.09247644
88	0xbdf296cf	-0.11845171
89	0xbd27d9c3	-0.040979158
90	0xbeedc10b	-0.46436343
91	0xbfad35ae	-1.3532007
92	0xbea8a956	-0.32941693
93	0x3dceb934	0.100939184
94	0xbd9285b7	-0.0715441
95	0xbe2a338c	-0.16621226
96	0xbe06b85e	-0.13156268
97	0xbe871ba2	-0.2638827
98	0xbf0088c4	-0.5020869
99	0xbd80a6b6	-0.062817976
100	0x3e0381f9	0.1284255
101	0xbdf24053	-0.11828675
102	0xbe8dc71d	-0.27690974
103	0xbd96cf9e	-0.073638186
104	0xbf36977b	-0.7132489
105	0x3d068713	0.03284366
106	0x3da6da31	0.081470855
107	0xbed76f3a	-0.42077047
108	0xbec5fccc	-0.3866943
109	0x3cfe38b2	0.031032894
110	0xbccf48a7	-0.025303198
111	0xbc5d270d	-0.01349808
112	0xbea730b6	-0.3265435
113	0xbd5728dc	-0.0525292
114	0xbef28520	-0.4736719
115	0xbf61556d	-0.88020974
116	0xbe386db9	-0.18010606
117	0xbede8065	-0.43457332
118	0xbe473912	-0.19455364
119	0x3e85b4e5	0.26114574
120	0xbdaa9160	-0.08328509
121	0x3d8400e7	0.064454846
122	0xbdd66741	-0.10468913
123	0xbe64d8c0	-0.22348309
124	0x3cc1893f	0.023625014
125	0xbf742223	-0.9536459
126	0x3dd99098	0.10623282
127	0xbd608fc1	-0.054824594
128	0xbd5a3956	-0.053277336
129	0xbde0928f	-0.10965454
130	0xbe117810	-0.14205956
131	0x3d6d9ff1	0.05801386
132	0xbdbc55c9	-0.0919605
133	0xbff36ea1	-1.9018136
134	0xbda71560	-0.08158374
135	0xbbb17624	-0.005415695
136	0xbf1b8964	-0.60756516
137	0xbe7bf7ab	-0.24606197
138	0xbe673c6a	-0.2258164
139	0xbe9f4152	-0.31104523
140	0xbe6b4b27	-0.22977887
141	0xbf3e87a8	-0.74425745
142	0xbf0cce81	-0.550026
143	0xbdb73594	-0.08945766
144	0xbe14fa95	-0.14548714
145	0xbf32bf1c	-0.6982286
146	0xbea67260	-0.32509136
147	0xbc6d7b1e	-0.014494685
148	0xbf2fc3a0	-0.68657875
149	0xbee59fa7	-0.44848368
150	0xbe589c97	-0.21153484
151	0x3d4bcc99	0.049755666
152	0xbf6b718d	-0.9197014
153	0x3cd1cfff	0.025611876
154	0x3c9c6d6c	0.019095145
155	0x3d02f579	0.031972382
156	0xbf7322a5	-0.9497474
157	0xbe469ae2	-0.1939502
158	0x3e2d6a9c	0.169352
159	0xbd2c27de	-0.042030208
160	0x3dc8fee9	0.09814245
161	0xbe29fed5	-0.16601117
162	0x3dae96e9	0.085248776
163	0xbc499049	-0.012302467
164	0x3e596508	0.21229947
165	0xbeb0956a	-0.34488994
166	0xbef90634	-0.48637545
167	0xbecfa085	-0.40552154
168	0x3e0c5f03	0.13708119
169	0xbd65b836	-0.05608388
170	0x3d4d5d56	0.05013784
171	0xbddbe76e	-0.10737501
172	0xbdfd0a42	-0.12355472
173	0x3d2010bd	0.039078463
174	0xbd6c9660	-0.057760596
175	0xbe467380	-0.19379997
176	0xbdd2ab73	-0.102866076
177	0xbd70a5b9	-0.058751795
178	0x3e20272a	0.1563994
179	0xbe619a25	-0.22031458
180	0xbe47d432	-0.1951454
181	0xbdc19377	-0.09451955
182	0xbfa9d353	-1.3267616
183	0x3dc5605d	0.096375205
184	0x3d278c07	0.040905025
185	0xbd6d5cbf	-0.057949778
186	0x3e1d8ffc	0.15386957
187	0xbd81c9fa	-0.06337352
188	0xbeddb641	-0.4330311
189	0xbe59d8c0	-0.2127409
190	0x3de922fe	0.11383627
191	0xbeab2b14	-0.33431304
192	0xbea5613e	-0.32300752
193	0xbeaae985	-0.33381286
194	0x3df46de1	0.1193502
195	0x3c171902	0.009222271
196	0xbdeb12f6	-0.11478226
197	0xbc749be6	-0.014929747
198	0xbe72c100	-0.23706436
199	0xbc77e1b3	-0.0151294945
200	0x3d919a6d	0.071095325
201	0xbe35df0f	-0.17760871
202	0xbe40529f	-0.18781517
203	0xbd8b7dfc	-0.06811139
204	0xbd0ada87	-0.03389981
205	0x3baba5e1	0.00523828
206	0x3cea9943	0.028637534
207	0x3e4f990b	0.20273225
208	0xbe75afb7	-0.23992811
209	0xbf986791	-1.1906606
210	0xbdc5d8f2	-0.0966052
211	0x3cbb760f	0.022883443
212	0x3d5d5bd7	0.054042663
213	0x3e1a866a	0.15090337
214	0xbd9b8f3a	-0.07595678
215	0xbdb67484	-0.08908942
216	0xbe8f70ff	-0.28015897
217	0xbffea0e4	-1.989285
218	0xbd62e29b	-0.05539189
219	0xbc0d048c	-0.008607041
220	0xbf60d46e	-0.8782414
221	0x3c94a470	0.018144816
222	0xbd81862d	-0.0632442
223	0xbec7ae91	-0.3900037
224	0x3d8c59bc	0.06853053
225	0x3d664f36	0.056227885
226	0xbef4f6fb	-0.4784468
227	0x3b537d97	0.0032270902
228	0xbe8f0e1f	-0.2794046
229	0xbeea2193	-0.4572874
230	0xbebd5d9f	-0.3698549
231	0xbd0ed3a7	-0.034869816
232	0xbd92a349	-0.071600504
233	0xbe614390	-0.2199843
234	0x3c4e2b02	0.012583496
235	0xbd0dcd39	-0.034619544
236	0xbf4006f4	-0.7501061
237	0xbbe13e23	-0.0068738624
238	0xbde76e42	-0.11300327
239	0x3da1be5b	0.078976355
240	0xbb83c88f	-0.004021711
241	0x3d5cd788	0.053916484
242	0xbebd1abb	-0.36934456
243	0xbe7ac3b2	-0.24488714
244	0xbd7cb08b	-0.061691802
245	0xbf9b5e7d	-1.213821
246	0x3dd0e1cb	0.101993166
247	0x3cc4c6f5	0.024020651
248	0x3ccb592a	0.02482279
249	0x3d9ff662	0.07810666
250	0xbec228be	-0.3792171
251	0xbef3472b	-0.47515234
252	0x3e2b7ddd	0.16747232
253	0xbe0c6d3b	-0.13713543
254	0x3d2e43e3	0.04254521
255	0x3d10919c	0.035295114

fc3.bias f4 [10]
0	0xbe3ba5f1	-0.1832502
1	0xbf3b5151	-0.73170954
2	0x3e3b2f9f	0.18279885
3	0x3f42106e	0.7580632
4	0x3eb3c080	0.35107803
5	0xbd9d3850	-0.076767564
6	0xbe43c93d	-0.19119735
7	0xbe77cb00	-0.24198532
8	0x3eb2f4b2	0.34952313
9	0xbee9292e	-0.4553923
