ckps/Lenet5_04_12_20_01.pth (torch_old, 249907 bytes, 10 tensors)

conv_unit.0.weight f4 [6, 3, 5, 5]
00000000: 32d5 053e 90f3 943d 0494 2a3e 95c3 4b3c
00000010: 40a4 62bc e7ae abbc 0358 8f3d 303e 8e3d
00000020: d41d dabd 5230 cdbd f596 c2bd 9f6f 2ebd
00000030: 40be 13bb 4192 cabc c265 073d d0fc cbbd
00000040: ae1a e4bc 5579 8f3d f7a2 36bd 70bd bfbd
00000050: e4a8 83bd 8ee3 c6bd f75d 443a 723c 81bd
00000060: bece e23c 5b33 e93d 11d3 343d 4a21 113d
00000070: d776 d43d ec7b 56bd 061c 08be 49c6 fdbd
00000080: d661 99bd bec3 bbbd a41c 84bc b7bb ac3c
00000090: 81e5 a73b 60e0 21be 63a9 1abd 4edf bbbd
000000a0: 80a1 49bd 85dc 93bc 9d54 c2bd e072 fbbc
000000b0: eb40 413d c6e9 9b3d 0a1f 23bc a781 8ebd
000000c0: 3e37 f8bd 4f5b 8bbd 0b96 5e3d f987 b3bc
000000d0: 170a 033e 2574 c63d f91f fb3d 87a9 c2bd
000000e0: 762c b7bc f38c f2bd 9e12 cfbd 0bd1 833d
000000f0: 8266 973d 11f5 eebb 45e5 bf3d 2fbd ed3d
00000100: dc46 fcb9 5f5c 903d 2f9a 843d 1e81 b13d
00000110: 3e2e a03d 0c18 99bc abc4 70bc 84c1 323d
00000120: 5677 093d 4e78 123d 9fe7 a9bd 6d44 333d
00000130: 1b71 49bd a726 833d 91dd a73d dd5b e23d
00000140: 30da 85bd e5a0 fa3d 8946 403c c9d2 333e
00000150: f728 1b3e 7e61 b53d 812d 053e 7a42 0c3e
00000160: 59ef bf3d 6daa 4b3d aa9b d43d c28d 82bc
00000170: e371 373e 2e21 243e d66d e53d 7a04 903d
00000180: e9ad 373d 2a35 0b3e 0cfd c63c 4278 833c
00000190: 3466 e73c 2187 2ebc d231 0a3e 4b71 12bc
000001a0: 5b18 273c 7862 023e e2fb d33d 079a 543d
000001b0: 5593 193e e65a 023e 01ee 74bc a5bf 183e
000001c0: 3793 633d 5857 4abd 3331 003e 40f3 e53c
000001d0: feb6 b93c 99c9 8e3d 9d57 9d3d 318e 86bd
000001e0: 9b7f 393d 994e 963d 0dab 973d 44b2 8d3c
000001f0: b278 a9bd fe19 b33d 7c97 9a3d 6833 433e
00000200: 804b ee3d 809d c73d 5d55 073e 477e c23d
00000210: 4acb 813b 29b0 cd3d ef94 d33d 28d2 93bd
00000220: 5a4d a33d c7fa 1c3d 898d bb3d 86ba 0d3e
00000230: f250 c93d dbd4 7dbd 84ce de3d c778 67bd
00000240: 0677 123e d50d 033e a57a dd3c 425d 763d
00000250: f257 2c3c 1ef5 c03d 9817 e7bc 5116 2fbd
00000260: 7d95 14be 72e1 f93c d397 2dbd 5253 b3bd
00000270: 6dd4 9dbd a4f5 07bd e494 943c 7d1f c93d
00000280: 6003 313d e9c6 01be 6a47 9a3d 9932 18be
00000290: 2bab 343c e85b 4dbd cac3 ad3c b9f3 bb3d
000002a0: 4797 b0bd be15 14be 6b58 743d 0640 c7bc
000002b0: a02b 2fbb 73d4 7dbd f503 25be 097c 863d
000002c0: f4e8 e83c ff2c 2cbe aa6b 1cbc e382 0ebd
000002d0: d9fe efbd 98ef 75bd f1b8 fbbd cdda de3c
000002e0: 109a 62bc 8c02 8d3c c33b 18be 4881 373d
000002f0: 9993 9cbd 8051 983d 840b a13d 3cf8 1dbd
00000300: a471 9d3d e104 1fbe 74a6 593d 2f34 30ba
00000310: 6827 c83d 6176 853d 66a9 cd3d 535b a63c
00000320: 4d1c 493d fa17 bb3c 3d67 a6bd 3a88 14be
00000330: c625 dcbd 7033 49bd bed2 60bd d181 dfbd
00000340: 7ddd 983d 0699 10be 0194 90bd 838c 2fbe
00000350: 2164 133d fbc0 50bd 172d d0bd d386 84bd
00000360: 497f 913c 6041 373d 275d 11be 9a46 ecbd
00000370: e00a a2bd 653f 8cbc 4e04 0cbd 8dfd 31bc
00000380: 2971 cdbd 7dc7 58bd 18a6 8fbd e887 80bd
00000390: 4e7a d13d f34c 793d 0dcf 22bd 80d9 e93d
000003a0: 4833 19bd 3867 2f3d 5ca3 f13d da57 eebc
000003b0: 3d8a 273e 4897 ac3d 5277 ec3c 68ec 963c
000003c0: 5994 2c3e 82dc 3b3e ef89 a83d 4bfb 563c
000003d0: 8684 703d ae32 8b3d c430 1b3e 74fd 343e
000003e0: fdbb dd3d 40ba 56bb e816 60bd 400c f83c
000003f0: d053 aebd f456 66bc b642 cc3d 9e1b d23d
0.13069609 0.07273018 0.16658026 0.012436767 -0.013833106 -0.020957423 0.06999209 0.06945455
-0.106502205 -0.10018982 -0.09501449 -0.04258692 -0.0022543818 -0.024727942 0.03305603 -0.099603295
-0.027844753 0.07005564 -0.04458901 -0.09362304 -0.06428698 -0.09711371 0.00074908085 -0.06310357
0.027686473 0.113867484 0.0441466 0.035432138 0.103742294 -0.052364275 -0.1329194 -0.123913355
-0.07489364 -0.09168194 -0.016126938 0.021085603 0.0051237945 -0.15808249 -0.037759196 -0.09173451
-0.049226284 -0.018049488 -0.09488795 -0.030694425 0.04718105 0.07612948 -0.009956131 -0.06958323
-0.121199116 -0.06804525 0.05434231 -0.021915423 0.12796818 0.096901216 0.12261958 -0.09504991
-0.022360068 -0.1184329 -0.10110973 0.06436356 0.07392599 -0.007292398 0.093699016 0.116083495
-0.0004811798 0.070488684 0.06474721 0.08667205 0.0782132 -0.018688224 -0.014695327 0.043641582
0.033561073 0.035759263 -0.08296131 0.043766428 -0.04918013 0.06403857 0.08196557 0.11052678
-0.065357566 0.122377194 0.011735567 0.17560877 0.15152346 0.08856486 0.1300564 0.13697234
0.09371824 0.049723078 0.10381253 -0.015936736 0.17914538 0.16028282 0.1120259 0.07032104
0.044843588 0.13594499 0.024290584 0.016048554 0.028246976 -0.010652334 0.13495567 -0.008938144
0.010198678 0.12732875 0.10350777 0.051904704 0.14997609 0.12729988 -0.014949323 0.14916857
0.055560317 -0.049399704 0.12518768 0.028070092 0.022670265 0.069720455 0.076827265 -0.065700896
0.04528771 0.0733921 0.07405672 0.017296918 -0.08274974 0.08745192 0.075484246 0.19062579
0.11635494 0.097468376 0.13216157 0.09496742 0.0039610015 0.100433655 0.10331141 -0.072178185
0.07973738 0.038325097 0.09157855 0.13840684 0.09829892 -0.061970573 0.108792335 -0.056511667
0.14303216 0.12798245 0.02703602 0.06014753 0.010519015 0.094217524 -0.028209493 -0.042745892
-0.1451015 0.030503009 -0.04238112 -0.087561265 -0.077065326 -0.033193246 0.018137403 0.09820459
0.04321611 -0.12673534 0.075331524 -0.14863051 0.011027138 -0.050136477 0.021211524 0.09177346
-0.08622604 -0.14461419 0.059654634 -0.024322521 -0.0026728883 -0.061970185 -0.1611479 0.065666266
0.028431393 -0.1681404 -0.0095471535 -0.034792792 -0.1171853 -0.060042948 -0.12291134 0.027203942
-0.013830677 0.017213129 -0.14866547 0.044801027 -0.076453395 0.0743742 0.078635246 -0.038566813
0.07687691 -0.15529205 0.053137258 -0.0006721643 0.09773141 0.065167196 0.10042076 0.020307219
0.049099255 0.022838581 -0.0812516 -0.14505091 -0.10749392 -0.04912132 -0.05488848 -0.109134324
0.074641205 -0.14120874 -0.070594795 -0.17143445 0.035984162 -0.05096529 -0.1016485 -0.06471028
0.01776089 0.04474008 -0.14195691 -0.11536904 -0.079122305 -0.017120073 -0.034183793 -0.010863674
-0.10031349 -0.05292462 -0.07014102 -0.06275922 0.10228406 0.0608644 -0.03974824 0.11418438
-0.03740242 0.042823046 0.117987365 -0.029094625 0.16361327 0.08427292 0.02886549 0.018423274
0.16853465 0.18345836 0.08229434 0.013121436 0.058720134 0.06796776 0.15155321 0.1767481
0.108268715 -0.0032764822 -0.054709345 0.030279279 -0.0851208 -0.014058817 0.099736616 0.10259174

conv_unit.0.bias f4 [6]
00000000: 4710 f4bd f9d5 d4bd 143a 793d 6cbc 9abd
00000010: 901d 2a3d 2e92 32bd
-0.11917167 -0.103923745 0.060846403 -0.0755547 0.0415321 -0.04359644

conv_unit.2.weight f4 [16, 6, 5, 5]
00000000: a390 993c f544 ee3c fd37 a63c 0645 4ebd
00000010: 499b 17bc 2ede 9e3d cc9b 9a3d 5bdb c33d
00000020: 0d1e 8f3d 13ff 9b3b bc9b b73d bcb3 aa3d
00000030: f9ed dc3c 1706 a13d 155d a5bb 673f 073e
00000040: 1608 253d b834 283a 12d8 993d dfe8 183e
00000050: f839 e13c 2971 cabb 9051 113e f0c8 aa3d
00000060: 72da 093e 283c 773d 7c15 113d 5102 7f3d
00000070: 8621 183d 1ca7 01bd 79fd 0bbc 678d 28bc
00000080: cf99 723d 251e 863c 5a18 f93c 9a75 94bd
00000090: 5c56 153d 6c43 00bd 7b34 543d 8b0a 943d
000000a0: b043 453d 28d7 92bc 0dc0 9abd 6204 56bd
000000b0: 82ea 9abd 8db8 7c3d 522e 74bd 6c42 3b3d
000000c0: 385a a43c 4344 71bd f449 14bd 318d 1abd
000000d0: 6c3d d53c b396 aebc f0f3 6b3b d6e5 463d
000000e0: ef59 0fbd 8e3d 60bd d8c0 69bd 2578 27bd
000000f0: 7152 7abd 5423 e43b a7f3 1b3d 63b0 e0bc
00000100: bd96 b33c 3166 2ebc 2215 c33d c0bf 35bd
00000110: c3c0 803d 4331 383c d5e8 d6bc fbcc 7bbd
00000120: 6518 563d 621c a33c 161a 9e3b c899 613d
00000130: abaa 18bd 94fc a53d 1d65 94ba 0edd 573d
00000140: bdd9 123c 3c0b 81bd 013c 933d 2f77 b33d
00000150: 1221 b9bb a7b9 303c 9251 aebd ad92 983d
00000160: 6eb1 88bd 678f 2bbd a192 8d3d 5148 59bd
00000170: d156 013c 1080 7c3b f775 2bbd 2714 39bd
00000180: 889e 903d 019b 403d 899e 233d 2070 913d
00000190: a02b 893d d00a 5ebd 6723 863d 5d0b 83bd
000001a0: c665 0dbd 6c83 a23d 6e97 6bbd de58 c63d
000001b0: 7844 22bd fd7d 2bbd 2aa2 b0bc b243 3a3b
000001c0: c56a e1bc 422d 4a3c d74e 233d 5e40 973d
000001d0: 9927 923d bd67 963d 7f17 6fbc 289b 9c3d
000001e0: c3ad 62bd 2f96 133d 0c10 413c afcc 9b3d
000001f0: 50d3 103d c0ac 1dbd 113f ecbd 4e88 eebd
00000200: 807b bcbd cd8c d2bd 4c7d 663d 8acf 8a3c
00000210: 51f7 72bd 5133 853d 4745 bebc 6a12 eabc
00000220: 9d18 d83c e0c3 a73d 526e 73bd 5a00 453c
00000230: 16c0 f43d ca3b ba3d 6c62 ec3d 6859 7f3d
00000240: 7767 2c3d 6520 8b3d 7f3c b9bb ad10 47ba
00000250: 3bfe 053d e034 3cbd 8cc5 b93c ead5 bebc
00000260: 3897 a13d 85af cc3d 1485 efbb 8da6 4e3d
00000270: 6ebe 4e3c d336 8e3c 027d 453d 4382 ef3d
00000280: 71b7 d33d 2e84 6d3d a075 9f3c 2c57 2fbc
00000290: 2ffb c93d 2f4d 893c 501c 983d 9251 13bd
000002a0: ac9a ee3c f87f c33b 1e43 7ebd 67a0 90bc
000002b0: 33fb 343d 2f42 b53d 8eec c8b8 4ebb 743d
000002c0: a7a2 403c efa4 8ebd b09a cdbd a7f1 e7bd
000002d0: 398e 973d e523 b43d cde4 ee3d 3f49 a5bc
000002e0: 1d8f 9fbb baef ab3c 3353 293d b9ad f23d
000002f0: e09a d63d 1a7a 36bd 7a90 17bc 4b8a 603d
00000300: 3fb1 513d 2d14 403d 1a0c 37bd ad0a 86bd
00000310: 7b7a f3bc 469e 643d 1233 1fbd 493b 5f3d
00000320: d49f 38bd 72d0 0abd aa79 3e3d 4502 d93d
00000330: c128 263d 51ca afbb 7610 41bd 0416 a4bc
00000340: ecb9 8e3d 1183 963d 9a2c c93b 5233 efbd
00000350: 5c1f bdbd 0b3d b7bc 859d 9c3d f2c8 3c3c
00000360: 6977 eb3c bcd9 2dbd c029 993c ddee 30bd
00000370: deab 34bd 1e55 29bd ca0f d8bc 9f03 49bc
00000380: 4bfb 503d 5202 5bbc e841 083d 9af7 8cbb
00000390: 8311 b0bb c39e 26bd 98e3 d23b 1acb 0d3a
000003a0: 09fd 13bd 1836 103d aee6 d7bd 47ab a43d
000003b0: 857e 28bc e531 bd3d 55bb 133c c7cb 04bd
000003c0: 0d15 b3bd 093a 8ebd 60ab 5e3d 1ef4 20bd
000003d0: 4c1e 213d 583b 9abd f089 433d 8a8e 37bd
000003e0: 6f59 3bbd 2814 653d 94be 463d 42b3 833d
000003f0: 4dfa 82bc 7a52 883d de5c df3d c9ba ffbc
0.018745726 0.029085616 0.02029037 -0.050358795 -0.009253331 0.07757221 0.07549247 0.09563323
0.069881536 0.004760632 0.08965251 0.08335063 0.026968943 0.0786249 -0.0050464966 0.1320778
0.040290914 0.0006416547 0.07511915 0.14932583 0.027493462 -0.0061780405 0.1419127 0.08339107
0.13462237 0.060360104 0.03542088 0.06225807 0.037141345 -0.03165351 -0.008544319 -0.010287619
0.059228715 0.016371796 0.03040712 -0.07248993 0.03645931 -0.0313143 0.05180786 0.072285734
0.048160255 -0.01792486 -0.07556162 -0.052250274 -0.0756426 0.06169944 -0.059614487 0.04571764
0.02006255 -0.05890299 -0.03620334 -0.037732307 0.026030265 -0.021312093 0.0036003552 0.048559032
-0.034997877 -0.054746203 -0.057068676 -0.040886063 -0.06111378 0.0069622193 0.03807416 -0.027427858
0.021922464 -0.0106444815 0.09525515 -0.04437232 0.062867664 0.011242214 -0.02623407 -0.06147478
0.05226936 0.019910995 0.004824887 0.055078298 -0.037272137 0.08104816 -0.0011321638 0.05270105
0.008963046 -0.06300971 0.07189179 0.08762967 -0.0056496942 0.0107864505 -0.08511652 0.07449851
-0.06674467 -0.041884806 0.06912733 -0.053047482 0.007894234 0.003852848 -0.041860547 -0.045185234
0.070614874 0.047022823 0.039946113 0.07101464 0.06697774 -0.05420953 0.06549721 -0.06398652
-0.034520887 0.07935223 -0.05751746 0.09684919 -0.03961608 -0.0418682 -0.0215617 0.0028421697
-0.027516732 0.012339892 0.03987011 0.07385324 0.07136459 0.07344005 -0.014593004 0.07646781
-0.055341493 0.036031898 0.011783611 0.076074 0.035357773 -0.038494825 -0.115354665 -0.11647092
-0.09203243 -0.10280762 0.056271836 0.016944665 -0.05931789 0.065039285 -0.023226393 -0.028573234
0.026378924 0.08191657 -0.05943138 0.01202401 0.119507 0.09093435 0.1154221 0.062341124
0.04209086 0.06793288 -0.0056529636 -0.00075937324 0.032713156 -0.045948863 0.022677206 -0.023295362
0.07890171 0.09994415 -0.0073095653 0.050451804 0.012618644 0.017360127 0.04821492 0.11694767
0.10337723 0.057987384 0.019465268 -0.010701936 0.098623626 0.016760437 0.07427275 -0.035966463
0.029126488 0.005966183 -0.062075727 -0.01765461 0.044184875 0.08850514 -9.580805e-05 0.05974894
0.011757529 -0.06965052 -0.1003927 -0.113253884 0.07400174 0.08795909 0.11664734 -0.020176528
-0.0048693554 0.020988334 0.04133911 0.11849541 0.10478759 -0.04455004 -0.0092507545 0.054819386
0.051194426 0.04689424 -0.044689275 -0.06545005 -0.02972149 0.055815004 -0.038867064 0.054499898
-0.0450743 -0.033890195 0.046502747 0.10596136 0.04056621 -0.005364694 -0.04713484 -0.02003003
0.069690555 0.07349218 0.00613935 -0.116797104 -0.09234497 -0.022367975 0.07647232 0.0115225185
0.028743463 -0.042443976 0.018696666 -0.043196548 -0.044109218 -0.04134094 -0.026374716 -0.01226893
0.0510209 -0.013367252 0.033265978 -0.0043019773 -0.0053731813 -0.04067875 0.0064358227 0.00054089876
-0.036129985 0.035207838 -0.105420455 0.08040481 -0.010284071 0.09238032 0.009016831 -0.0324209
-0.087442495 -0.06944663 0.054362655 -0.03929531 0.039335534 -0.0753085 0.04773897 -0.04481367
-0.045739587 0.055927426 0.048521593 0.06430675 -0.015988493 0.06656356 0.10906385 -0.031216996

conv_unit.2.bias f4 [16]
00000000: 1035 7b3d eefd 373d b637 aebd 5a34 b93d
00000010: 0b42 86bd 0d9a 2c3e 0c68 99bb 11b6 b4bd
00000020: 1bd9 353d 48b8 a63c 17f9 f83d b80a dc3d
00000030: fe44 343e 23b8 e43d 329d d63d ee87 d83c
0.0613299 0.0449199 -0.0850672 0.090431884 -0.065555654 0.1685564 -0.004681593 -0.08823789
0.0443965 0.020351544 0.12156885 0.10744232 0.17604443 0.11167934 0.104792014 0.026432004

fc_unit.0.weight f4 [120, 400]
00000000: cc15 47ba c523 7dbc 519d f53c fba9 4e3d
00000010: 1ee8 bcbc 11a6 4fbd d2a8 e13c ee91 97bc
00000020: 98cb a2bc ed33 0bbd 9875 a73c 3b3c 09bc
00000030: 73d0 3e3c fa19 04bd d1a1 19bd ca51 bdbc
00000040: 4347 f2bb 8b0a 29bd 9b29 72bd 1e1e 9abd
00000050: 692d 993b 285f 53bd 7ebd a23c f74c ffbc
00000060: f321 74bc c841 9dbb 9742 d9bc 3b49 38bd
00000070: 4d18 33bc 3335 4e3a 18f6 6f3c 61ff 403c
00000080: 196d 283d e7c9 d63c 8f57 0fbd 8e62 393d
00000090: d7a2 8bb9 7518 443d c750 1abc 80cb 163d
000000a0: 5c20 91bc 94d7 013d fa17 40bd ea07 53bd
000000b0: 768d a23b bd14 b23d f79e 4e3c dd7c 9fbc
000000c0: e957 9cbb 064c aabd 95de d83c 29d6 023d
000000d0: 928d 643d 1b81 eabc 5450 42bd 77ea c73b
000000e0: c096 103c 3714 393d 7a15 c33c ddf9 e4bc
000000f0: 1303 45bd 54c5 323d 2bff b23c 5b3c d7bc
00000100: c223 543d d614 2cbd 6831 91bb 5692 4c3d
00000110: 9a53 363d ee10 a43c 08c2 dfba 30fa 36bd
00000120: d057 fb3c 5470 0c3d 3408 06bd 9bbd 8ebd
00000130: 5810 9a3c ebdb dabc ba86 523d 8383 8f3c
00000140: a28e 8cbc 5614 1abd 7115 da3c 8b59 6f3c
00000150: c86f 3b3d a721 05bd 3ea8 68bc 395c 0a3c
00000160: 9cc4 b43c 3788 db3c 62f7 58bd be03 a13b
00000170: 990b b4ba acf9 933d 5b9b 0d3d c655 2ebc
00000180: 8e39 2dbd cd01 d03c d0ef b1bc 5202 33ba
00000190: cd06 cd3b 9a1f 1c3c d614 b5bb a8de 3fbd
000001a0: 1d06 dabc c501 0fbd 811a 27bd f01e 65ba
000001b0: c638 38bb ee2c c73a 490e 7ebb 9fbe 1c3d
000001c0: 94b3 a03c 096f 843c 1040 103d 6db9 2e3d
000001d0: ad24 a83c e167 5dbb 21d7 03bd e453 443d
000001e0: a317 20bd 1af1 95bc 0dfc 65bc 7f44 22bd
000001f0: b4b4 6dbd 05a7 0cbd bb9d ae3c 8748 2c3d
00000200: 5813 85bb 1748 173d a338 e73b bf86 e2bc
00000210: 50d7 c838 f873 5e3c 4380 d9bc 9281 1abd
00000220: 5ff1 35bc 3c79 cb3c c435 573d f775 363d
00000230: a31b 1ebd d5d4 cd3c 8b37 00bd 10fa 273d
00000240: 4aad d53c ccac 71bd e859 14bd 5aaf 31bd
00000250: 094a e03c 7ab3 e8bc 44bb 2e3d 0564 eb3c
00000260: 565f f23b 14dd 60bd d499 3e3d f2d3 603d
00000270: c3b2 c4bc 2fe9 aebd 55d2 96ba e04d 0d3c
00000280: c47f 2bbd 2382 58bd a6a3 32bd 7e7b 223d
00000290: 6223 d33c 399b 31bd c77d 0f3d 1fb1 253d
000002a0: b037 a13c d445 5c3c 676d 433b 587c 443c
000002b0: 24dd f73c ac6c d4bc ef80 16bd 370a 3d3d
000002c0: 1e26 a13c ca9a 753d 6d18 193d 5feb c739
000002d0: 7844 b6bb 3865 87bd 60fc 0bbd fc8d 15bd
000002e0: 7f4b 2a3c accb b23c 3e76 e7bc 5f05 fdbc
000002f0: 3aea dfbc 083a 563c 79f1 dd3b 4a41 05bd
00000300: 665c 573c caa8 01bd c9b1 863c 14b8 56bd
00000310: 90f1 803c 64c7 be3a f919 0ebd 6fee ccbc
00000320: 38a9 04bd 7f21 933a 454d 6d3a 27b5 d03a
00000330: addd e4bc bc1e 45bd b4b2 1bbd 97e6 983c
00000340: 6468 0c3d 4ac8 4bbc 4ba1 6cbd 543e 84bc
00000350: df39 b93c d5ef d7bc da10 0a3d 4836 5ebc
00000360: 17f9 c3bc e8b4 0f3d c21d e93c a688 ce3c
00000370: 98d1 fcbc 7caf 5cbd ed74 7cbc 4806 6d3c
00000380: 8514 11bd ed74 4a3c 9160 783c d1da 383d
00000390: db06 2b3d 593e 8e3c 9df3 62bc d97a 23bc
000003a0: 0813 71bb a026 e2bc 7ade 11bc 0fcc aebb
000003b0: 7ccb d5bb 0b67 06bc 16d1 003c f51d f5bc
000003c0: 459e 533d cef5 4c3d 4d5b 653d e69e 8b3b
000003d0: 498b 01bc ac7d c1bd d3f8 58bc cc23 4fbd
000003e0: 3d62 3dbb c8ed 13bd c7d5 1dbd dd78 2ebd
000003f0: 993b 14bd ff52 34bd ba22 e33c 333a d43b
-0.00075944955 -0.015450423 0.02998224 0.050455075 -0.0230599 -0.050695483 0.02754632 -0.018502202
-0.019872472 -0.033985067 0.020441815 -0.0083761765 0.011646378 -0.032251336 -0.037507836 -0.02311029
-0.007393749 -0.04126982 -0.05912171 -0.07525276 0.0046746028 -0.05160442 0.019865748 -0.03116463
-0.014900672 -0.0047991015 -0.02652101 -0.044991713 -0.010931087 0.00078662037 0.014646076 0.011779637
0.04111967 0.026219321 -0.03499561 0.045260005 -0.0002663347 0.047874887 -0.009418673 0.036815166
-0.017715625 0.031699732 -0.046897866 -0.05152122 0.004960711 0.08695362 0.012611142 -0.01946872
-0.004771222 -0.083152816 0.026473323 0.03194252 0.055799074 -0.028626015 -0.047439888 0.0061009484
0.008825004 0.045185294 0.023813952 -0.027951175 -0.048098635 0.043645218 0.02185019 -0.026273897
0.051791914 -0.04201206 -0.0044309385 0.049944244 0.044513322 0.020027604 -0.0017071376 -0.04467219
0.03068152 0.034286812 -0.032722667 -0.06969758 0.018806621 -0.026716193 0.051398017 0.017518764
-0.017157856 -0.03761705 0.026621552 0.014608751 0.0457609 -0.032502797 -0.014200268 0.008444839
0.022066407 0.02679835 -0.052970298 0.004913776 -0.0013736367 0.072253555 0.034571987 -0.010640567
-0.042291217 0.025391484 -0.021720797 -0.0006828654 0.006256914 0.009529019 -0.0055261655 -0.0468432
-0.026614243 -0.034913797 -0.04079676 -0.0008740267 -0.0028110011 0.0015195885 -0.0038765839 0.038267728
0.01961688 0.016166227 0.035217345 0.042657305 0.0205253 -0.003378384 -0.032187585 0.047931567
-0.03908504 -0.018303443 -0.014037144 -0.039616104 -0.05803366 -0.03433897 0.021315446 0.042061355
-0.004061144 0.036933985 0.007056312 -0.027652143 9.576848e-05 0.013577454 -0.026550418 -0.037721224
-0.011104911 0.024838082 0.05254151 0.044546094 -0.038600575 0.0251259 -0.03130297 0.041009963
0.026083607 -0.059002683 -0.036218554 -0.04338012 0.027379053 -0.028405894 0.04265906 0.028734216
0.007396619 -0.054898337 0.04653342 0.054889627 -0.024011021 -0.0854057 -0.0011506776 0.008624524
-0.041869894 -0.052858483 -0.0436131 0.039668553 0.025773708 -0.043360922 0.03503206 0.04045212
0.019679874 0.013444383 0.0029819848 0.0119925365 0.030256815 -0.025930725 -0.036744054 0.04615232
0.019671496 0.05996207 0.03737681 0.00038131603 -0.0055623613 -0.06611103 -0.03417623 -0.03651236
0.010393976 0.021825634 -0.028254624 -0.03088635 -0.027333368 0.013075359 0.0067731705 -0.032532968
0.013144588 -0.03165511 0.016442196 -0.052421644 0.015740186 0.0014555273 -0.03469274 -0.025016038
-0.032387942 0.0011225193 0.00090523466 0.0015923128 -0.027937734 -0.048125014 -0.03801222 0.018664641
0.034279242 -0.012437889 -0.05777101 -0.016143002 0.022610603 -0.026359478 0.033707477 -0.013562746
-0.023922486 0.035084635 0.028456572 0.025211643 -0.03086166 -0.053878292 -0.015408737 0.01446683
-0.03541996 0.012356979 0.015159742 0.045130555 0.041754585 0.017363714 -0.013852027 -0.00997802
-0.0036785025 -0.027606308 -0.00890314 -0.0053343843 -0.0065245014 -0.008203278 0.00786235 -0.029921511
0.05166461 0.050039105 0.055995274 0.0042608855 -0.007906743 -0.09447798 -0.013242918 -0.050571248
-0.0028897666 -0.036115438 -0.038533952 -0.042595733 -0.03618965 -0.044024464 0.02772652 0.0064766645

fc_unit.0.bias f4 [120]
00000000: 6b5a 333c 4ad5 a639 cdf8 6f3c 651f a23b
00000010: 131e 3e3d 228c a43c 7c3d 81bd d46f debd
00000020: d850 2b3c 5f55 01bd 1010 8cbd 6da8 f83d
00000030: 4f52 ea3c 295a 153d 39a1 0cbd 422b 9abd
00000040: 7890 043d 2ca2 013d 4264 cc3d 30c2 4ebb
00000050: ff20 9ebd 3835 fc3c 64c4 f4bc 3981 823c
00000060: d02f 83bb f891 b23c 7780 30bd 4c87 993d
00000070: b3b5 8bbd e0ee 54bd e64c 4cbc bee9 22bb
00000080: 0ca3 bc3d 07b0 163d 79b9 81bd 3ff9 37bd
00000090: 4b8b 8f3d c380 ae3d a6de 163d 1396 453d
000000a0: 7d28 743c ad3a be3b 02d6 b1bd aa6b a23d
000000b0: da45 8a3c daca cebd 1906 af3d 3dfe f8ba
000000c0: 37e4 263d e061 07bd cc16 a03d 4f63 aebc
000000d0: 0ccf 21bd 232e 8abb 32c8 d13b 01e6 163d
000000e0: 0839 493a 84d2 9d3d c566 1fbd 6978 633d
000000f0: 33a5 14bd fffe 23bc 782c 633d a9ad c03c
00000100: 13b6 053d 07de 043d 908b a73d 0520 d4bd
00000110: 3137 da3d a233 003e 9053 243d a0e8 d1b9
00000120: 2e56 a5bd e96f 923d 99f6 f53c a18f afbc
00000130: e7b2 c73d 90b4 9cbc 74cb 6ebc 3476 e2bc
00000140: 5e5c e33c 6538 943c 9ed3 1d3d 6eea e0ba
00000150: 1f82 a63b 5ff0 213c a9c1 943b 2960 bdbb
00000160: af3d acbd 4f5d ce3c 6652 85bc 3fc9 66bd
00000170: 8f82 273d aeb7 95bd 07f9 ec3d d7e7 323d
00000180: a32c cfbd 0363 77bd 9c03 bdbd 34ba 083d
00000190: 2639 a53d eae4 a6bd bc1e a6bd e6a2 a6bd
000001a0: 6f1b 1e3d 6cf8 733d 961f 713d 7fb3 8ebc
000001b0: 0d29 c6bc 97d9 6a3d b2e9 a43c 8bb3 c1bd
000001c0: 7bcf 983c 2657 c23c b5e6 1c3c 63f2 ad3d
000001d0: 6a60 b4bd cda9 d93c bee2 9f3d 1c45 afbd
0.01094685 0.000318209 0.014646721 0.00494759 0.0464154 0.020086352 -0.06310555 -0.10861173
0.010456286 -0.031575557 -0.06839001 0.121415 0.0286037 0.036462937 -0.03433344 -0.07527782
0.03236434 0.0316488 0.0998006 -0.003154885 -0.07721137 0.030787095 -0.029878803 0.015930759
-0.0040035024 0.021798119 -0.043091264 0.07496509 -0.06821766 -0.05198562 -0.012469506 -0.002485856
0.09210786 0.036788967 -0.06334204 -0.044915434 0.0700899 0.08520653 0.036833428 0.048238825
0.014902231 0.0058053345 -0.08683397 0.079306915 0.016879011 -0.100972846 0.08546085 -0.0018996667
0.040744986 -0.033052325 0.07816848 -0.021287588 -0.039504096 -0.0042169257 0.006402039 0.036840443
0.000767604 0.07706168 -0.038916368 0.055534754 -0.03629036 -0.010009526 0.05546233 0.023520308
0.032644343 0.032438304 0.08180916 -0.1035767 0.10655058 0.12519696 0.040118754 -0.00040036906
-0.08073078 0.071502514 0.030024813 -0.021430792 0.0975092 -0.019129068 -0.014574874 -0.027644254
0.027754005 0.018093297 0.038531892 -0.0017159709 0.0050814296 0.009883969 0.0045396877 -0.0057792854
-0.08410203 0.025190977 -0.016274642 -0.056344267 0.040895995 -0.07310425 0.11570936 0.04367813
-0.10115936 -0.06039716 -0.09229204 0.033380702 0.08067541 -0.08149131 -0.08111331 -0.08136539
0.03860038 0.059563085 0.058868013 -0.017419575 -0.024189496 0.057336416 0.020130966 -0.09458073
0.018653622 0.023723196 0.009576489 0.08493497 -0.08807452 0.026570225 0.078069195 -0.085581034

fc_unit.2.weight f4 [84, 120]
00000000: 60d3 db3d c9bb a33d bd18 05bd d867 d03c
00000010: a590 7b3d fc97 eb3c ad3e 8fbd 71b7 79bd
00000020: a07e be3d 3769 32bc cc68 7fbd dc5d a33d
00000030: 36b3 10bc cb60 e03d bba2 9dbd 1063 1bbd
00000040: 1fb6 413c b918 ba3d 5852 de3d ca27 a1bc
00000050: 9a58 bbbd 5d2d ca3d b121 e7bd 2d19 0a3e
00000060: 685e 243d 7dd7 1cbd 1a11 8abd 4c0d 523d
00000070: d266 b8bd 2cc9 82bc 17c7 983d 13c7 e53c
00000080: c78e 033d afee 26bc da0d 16bd 33ea 86bd
00000090: 57fe 423b 3dd9 023d 522e 1d3d 8ee2 15bd
000000a0: 0d70 803c 5c43 8bbd 2928 eabd ac62 503d
000000b0: 7e36 133d 42ba 1dbd 017f 8b3d ec0f bb3d
000000c0: b948 7fbd be40 953c 90dc 7339 208e 7fbd
000000d0: 4d37 583b 49f0 b3bc 3cc1 ea3c ae26 9dbb
000000e0: 35d6 cc3c 6530 833d 40c1 3a3d 50ce ecbb
000000f0: 9467 783d d897 ff3c b361 953c a039 93bc
00000100: d10b 73bd 0058 e0bc 94b4 9a3d 5436 e8bc
00000110: 7757 5b3d b9a2 c83c d7ab 8a3d ab8f 83bd
00000120: 140c 8bbd eb5f ac3d 2f3f 99bd 5486 13bd
00000130: 92a4 9d3d 2ab3 42bd b485 9f3d 2605 8fba
00000140: b2d1 0e3d 19eb 763d edbc aabd 4b6a 72bd
00000150: ed86 59bd 65f8 203d 18b3 b23d 97b6 013e
00000160: 32f6 5ebd ce18 8c3d d035 b63d d81b b0bd
00000170: 7804 b63d c813 abbd 185c c73d 896c b83d
00000180: b498 913c 8196 7abd 7250 fcbd 98fc 08bd
00000190: 3431 ab3d 3257 a6bd c237 92bb b168 76bd
000001a0: 8f1c 103d 5a1c 573d 3792 803d a0bd 82bd
000001b0: 5446 f5bd 1a11 373d a1fd edba 707e d53c
000001c0: 5018 8a3d 3f78 503d a62b 9b3d fb2a 183d
000001d0: 1195 533d e389 b03d ea29 363c af63 2cbc
000001e0: 5fde 973c 44c7 24bd d244 6bbd 6f4a 283c
000001f0: 11c7 1c3d fac2 bebd b2de 4cbc 20be be3d
00000200: 4cc2 e6bc f26f f93d 2e15 b0bd 9e9c 46bd
00000210: af64 6bbd 2058 a9bd 659e 693b f69c 453d
00000220: 1b6b 8a3d 4437 963d 1c64 c83d fd9c 98bd
00000230: 25f7 bb3d b33c c23d 2b5f d73d dfed d03c
00000240: e515 0dbe 6bb8 89bd 7ac5 4dbc 9c55 fabd
00000250: f949 033c 3e00 973c 30a5 8f3d 7067 f3bb
00000260: 4a2f 8dbd f956 783c 5251 30bc cdc4 d639
00000270: a3ed 90bd 0316 b33d 7c36 acbd b316 9e3c
00000280: a0c7 a73d a06b b93d 2248 6cbd eb97 863c
00000290: 5dda 88bd 1f90 db3c 0f13 80bd c6e9 fd3d
000002a0: fa4e 1ebb 0b6b b9bd 1e54 d63d 5b7b b1bd
000002b0: 62bf 273d 7782 8cbd 0901 b5bd 9086 7a3d
000002c0: 6d33 683c 3218 c03d 5439 9e3d 4737 783d
000002d0: 7d36 093d 4799 e7bd 80cb 69bd cc91 52bc
000002e0: 49fd c23c 806f 25bb 3131 123d 9c79 f6bc
000002f0: 93ac 9bbd 80d0 a43d cf02 7ebd 780b 67bd
00000300: 1be1 abbd b914 7a3d 1ec9 303d 2613 b6bd
00000310: 9b35 2fbd dfe6 35bd dd7d c4bd f736 0abd
00000320: 1a09 b6b9 0ed3 083c 37a4 b8bb feda f2bd
00000330: 8e08 023c fdaf 75bd ee25 6a3d 76f7 fcbd
00000340: 1510 ab3d 1328 c3bd 03ba b53d 2526 7e3d
00000350: 1eb8 9d3d 6910 8a3d 2d03 9fbb e58a afbd
00000360: 8677 a0bd d208 f7bc 9e49 d9bd 9532 b43d
00000370: ee9b f23c d175 c23d e104 a53d bd1b 49bb
00000380: 3d90 b53d 9a00 63bd 65a7 4a3d 21c7 82bd
00000390: 0b14 0b3d 0b83 c53d 8347 2bbd 29e9 8bbd
000003a0: cf18 453d 43e4 c63d 0526 31bd c625 9a3d
000003b0: e32c c53c 4980 993c 2aea afbb 0b1b 783d
000003c0: 8601 83bd 2c51 c53c 6bf6 55bd 8cba 57bd
000003d0: ada5 c63d 759f 43bc e440 c13c 96b7 993d
000003e0: 5813 b23b 3839 913d 690c 493d c596 8bbd
000003f0: 01a2 3e3d ecbb 513d aafd c53b 7290 a73d
0.10733676 0.079948016 -0.032494295 0.025440142 0.06141724 0.028758995 -0.06994376 -0.06096596
0.093014956 -0.010889343 -0.0623558 0.07976887 -0.00883179 0.10955962 -0.07697054 -0.03793627
0.011823206 0.09086747 0.108555496 -0.019672293 -0.09147759 0.098719336 -0.11285723 0.13486166
0.040129095 -0.038291443 -0.06741543 0.051282212 -0.090039864 -0.015965067 0.074598484 0.028049028
0.032118585 -0.010188743 -0.036634304 -0.06587639 0.002975365 0.031945456 0.038374253 -0.036593013
0.01567843 -0.06799957 -0.11433441 0.05087535 0.03594064 -0.038507707 0.068113334 0.09133896
-0.062325213 0.018219348 0.00023256452 -0.0623914 0.0032991946 -0.021965163 0.028656594 -0.0047958707
0.025004486 0.06405715 0.045594454 -0.007226743 0.060645655 0.031200334 0.018235063 -0.017971814
-0.05933744 -0.027385712 0.07553974 -0.028346218 0.05355021 0.024491655 0.06771057 -0.06423887
-0.06789413 0.084167324 -0.074827544 -0.036016777 0.07697405 -0.047534145 0.07789174 -0.0010911569
0.03486795 0.0602828 -0.08336816 -0.0591834 -0.05310719 0.039299387 0.08725566 0.12667309
-0.05443401 0.068406686 0.08896983 -0.08599061 0.08887571 -0.08353382 0.09734362 0.090050764
0.01777301 -0.061178688 -0.12320031 -0.033444017 0.08358994 -0.081221 -0.0044622133 -0.060158435
0.035183486 0.052517273 0.06277888 -0.06383824 -0.11976305 0.044694044 -0.0018157252 0.026061267
0.067429185 0.050895926 0.07576685 0.037150364 0.051655833 0.0862005 0.0111183915 -0.010521813
0.018538652 -0.040229097 -0.05743868 0.010271653 0.038275782 -0.093145326 -0.012504267 0.09313607
-0.02816882 0.12179555 -0.0859779 -0.048489206 -0.057469066 -0.08268762 0.003564739 0.048245393
0.0675871 0.0733476 0.09784719 -0.07451818 0.091779985 0.09484234 0.10516199 0.02550405
-0.13777883 -0.06724628 -0.012559289 -0.1222336 0.008013242 0.018432733 0.07013929 -0.007428102
-0.06893785 0.015157455 -0.010761576 0.0004096389 -0.070765756 0.08744433 -0.084088296 0.019297933
0.08192372 0.09053731 -0.05768598 0.016429862 -0.066822745 0.02680212 -0.06253635 0.12398104
-0.002415596 -0.0905362 0.10465263 -0.08666106 0.040954 -0.06860822 -0.08838088 0.061163485
0.014172417 0.09379615 0.07725778 0.06059959 0.03349923 -0.11308532 -0.05707884 -0.0128521435
0.023802416 -0.002524346 0.035691444 -0.030087285 -0.07601275 0.08047581 -0.062014397 -0.05640742
-0.08392545 0.06105492 0.04316055 -0.08890371 -0.04277573 -0.04440963 -0.09594319 -0.033743825
-0.00034720526 0.008351101 -0.0056348103 -0.11858176 0.00793661 -0.05998229 0.05716508 -0.12351887
0.08352677 -0.09529128 0.088733695 0.062048096 0.07701133 0.06741411 -0.0048526735 -0.08571414
-0.07835297 -0.030155573 -0.106097445 0.0879871 0.029615369 0.09495128 0.08057571 -0.00306867
0.08865402 -0.055420496 0.049476046 -0.06385637 0.03395466 0.09644135 -0.041816246 -0.06831581
0.048119362 0.09711506 -0.04324915 0.07526736 0.024069255 0.018737929 -0.0053684907 0.060572665
-0.06396775 0.024086557 -0.052236956 -0.05266814 0.09699569 -0.011939873 0.023590513 0.07505719
0.005434435 0.07090992 0.0490841 -0.068158664 0.046541218 0.051204607 0.006042202 0.08181848

fc_unit.2.bias f4 [84]
00000000: 846a f83d ad8e 98bc 8b50 533d 9430 4abd
00000010: 33aa adbd daaf 023e 5ec2 d2bd a5d9 77bd
00000020: a33a 743d 420e 953d 4cc8 8e3d 179b 963d
00000030: b2b3 9abd 5cbb 21bb 7acd d8bc 595b b5bb
00000040: 2594 c3bc 43e1 93bd 43e1 3d3c 03e0 433d
00000050: ee8d 353d 3a07 f13d 7290 d7bd c871 263d
00000060: 3cca 0ebd f461 953d a055 b6bd 4740 ed3d
00000070: 1eff 993c f388 403c 9e53 8b3d 8fa7 1cbd
00000080: 490d cebc 64b8 7bbd af2a 503d 37fe 153d
00000090: 7b9c 073e 52cc 0d3c 7582 19be e8ae 023c
000000a0: ec0b 963d 97c5 1fbd 85f2 59bd 8b3c 3f3d
000000b0: edcb 003e 7a66 cebd cc82 4c3d 5efe 8f3d
000000c0: 9c2e e2bd 34fd 3dbd 659d b43d f8a9 bfbd
000000d0: 1285 9fbd 466e 69bd a8fc f23c c3c4 603d
000000e0: be58 643c dd92 373d 72ba de3d 239c 313e
000000f0: a5a1 2d3a 7e38 423d 2713 5fbc 0298 5bbc
00000100: b291 ee3d 391b cb3d f702 f8bc 71eb 8fbc
00000110: 972c 3abd 4ed0 42bd 1bc4 0c3c 0e21 cb3d
00000120: 538a 593c df76 1fbc c399 9ebd 755f c23c
00000130: 1412 afbd f584 993d e78e 573d e8dd d7bd
00000140: 41c1 a43d 78a2 1ebd 7fd3 c13d 3c63 073e
0.12129691 -0.01862272 0.051590484 -0.049362734 -0.084797285 0.12762395 -0.10290979 -0.060510296
0.059626233 0.0727811 0.06971797 0.073538 -0.075538054 -0.0024678325 -0.026465166 -0.005534571
-0.023874352 -0.072207 0.011589351 0.047821056 0.044324808 0.117689565 -0.10525598 0.040635854
-0.034860834 0.07294074 -0.089030504 0.115845256 0.018798407 0.011751401 0.06803058 -0.038245734
-0.02515282 -0.061455145 0.050821956 0.03661939 0.13243286 0.008654671 -0.14991172 0.007976271
0.07326493 -0.039006796 -0.0532098 0.046688598 0.12577792 -0.100781396 0.049929425 0.070309386
-0.11044046 -0.04638405 0.08819083 -0.09358591 -0.07789053 -0.05698993 0.029661492 0.054875147
0.013937173 0.044817794 0.10875405 0.17344718 0.0006623513 0.047417156 -0.013615406 -0.013402941
0.11648883 0.09917302 -0.030274851 -0.017568322 -0.04545268 -0.047561936 0.008591677 0.09918414
0.013277608 -0.009732931 -0.077441715 0.023727158 -0.0854837 0.07496063 0.052626517 -0.10540372
0.08044673 -0.03872916 0.09464168 0.13221449

fc_unit.4.weight f4 [10, 84]
00000000: a77b 063e 62a6 bebd b0db 183d 1387 2abd
00000010: 002c 0dbd a0cd ad3d a7aa 4d3c 05fd af3c
00000020: 9534 1e3d 51dd 983c 61f8 5e3d e176 c0bd
00000030: 74de d3bd 2136 cc3d d83b 483d 90af ffbc
00000040: 8c97 7a3d cf2c c2bd 5a14 173b f8e2 9ebc
00000050: e763 e2bc fe89 6d3d cf58 5f3b f6eb 91bd
00000060: ec21 ae3d 4b77 d5bd b753 d23c 39d5 d83c
00000070: 0ab2 c13c 6ddd 243d 79b5 d43d 29ba 423d
00000080: b35e d6bd 32bb 203d 88af b33d 423d 073d
00000090: 00a9 26bd 92f6 24bd 6fec 0c3d 9609 96bd
000000a0: adcb 46bd 1f8f f13d db5e 653c 3714 d9b9
000000b0: 8878 b6bd a719 68bd 6b61 acbc 5c90 bfbd
000000c0: f69a dfbb 495f 0b3d 360e dc3d 271f c53d
000000d0: 3e24 133d 87fd 81bd d1a1 563d fb9a 1f3d
000000e0: 357a c6bd 8773 8ebd 3530 80bd 8d6e 2bbc
000000f0: 7104 8abd 4986 a33c f24b 8a3d 6ddc e73d
00000100: 0bde bbbc 7619 cb3b 71d6 9bbc 5f5b e03d
00000110: 0c55 8f3d 5cde 4e3c 6245 7d3b d0fc 9ebd
00000120: c7aa c9bd 4158 363e 80d9 273b f8bd 0fbd
00000130: 7906 fcbd 3f5b c43c 6f80 77bd 68d7 543d
00000140: d0ae 0dbe 7cf2 bdbc 4ab0 e13d 5e07 003d
00000150: df03 0dbe f13c 48bd 39c8 7c3d db9f e3bd
00000160: 1a06 8ebd 97d1 05bd 542a aabd eead b23b
00000170: 912b f43c e197 bf3d 6be6 113d 5948 9ebd
00000180: 518a 60bd 2d9a 02be 7500 fe3c c455 0cbe
00000190: 3ab8 2bbe fdb6 013c 48e8 0fbd 57ce f53d
000001a0: a44c 13be 33ab 1dbe 52d5 80bd e5fc 123e
000001b0: ef82 b13d 300e 803d 0471 983d 5912 f2bd
000001c0: 58ae f83d 94f4 56bc efda e8bd 6187 a83d
000001d0: 34a9 00bd 269d a4bd ae60 d13d e3e7 afbb
000001e0: 91b2 f9bd d2f6 a6bd eb2a 263d 03d4 aebd
000001f0: b87e 0dbe 1b46 ce3d de13 00be 44c8 aa3d
00000200: d82b 84bd 5ca9 01be cd3a a8bd d039 9ebc
00000210: 44ae 873d be56 fa3d 37de 44bc e89c e8bd
00000220: 778e 383c e4ae 6d3d 82cc 09be c3fe 00bc
00000230: 48ef 1abe 3763 02be 6faa ec3d 09ec 84bc
00000240: 2c75 0b3e 1fb0 8bbb 8599 a03d d182 bfbd
00000250: 3f5d 7ebd 8a42 0fbe fb97 f63d cac5 9a3d
00000260: 8b7b a73d 67e9 8ebd 9602 d5bd 117e ffbd
00000270: c40b c33d 9a2a a4bd 51f3 94ba 9954 e6bd
00000280: 9c99 c83d b2be bfbb 2370 803d c41e 9a3d
00000290: 543e a43d b1dd e23d d7e2 d3bd 43d4 843c
000002a0: 839b 153d 80d9 13bd 2143 17bc 2b9f fcbd
000002b0: 1c4c 943d f8fa f9bc 71c3 553c 740d 593d
000002c0: c9ec 3ebc 663e e23d 69f3 3e3d 1089 8c3a
000002d0: 2be4 21be ee2f ce3c fa8e 0fbe f1ed 783c
000002e0: 1bc7 a63d ad2d 973d 6ca5 163e 201d 7dbd
000002f0: fb4c 3f3d 0f78 043e d17d a8bd ab99 813d
00000300: 5961 e4bd 2da4 0bbd 36ac b1bd c57c f7bd
00000310: ad2f 57bd 0181 85bd f96e f63d fa54 a7bd
00000320: 9dfc 953d bd74 3abd 2213 9d3d 9c62 f53c
00000330: a774 aa3d 29ec c2bd e620 66bd 2c46 583d
00000340: 9c79 dbbb 2e30 6fbd 411e 083e 7d5b 3a39
00000350: 55b7 df3d 35cf 5fbd 8ecb ecbd 3427 c4bd
00000360: 4dde 00be b644 4cbc 6174 9e3d db71 3d3d
00000370: 6cb7 04be d616 993d baa5 a5bd fee7 7e3d
00000380: 6f07 b4bc 1293 eabc 81c4 ad3d 4fcd 02bd
00000390: 2c1e 00bb 551b ef3d 5a68 c53c 0499 bb3d
000003a0: 2b34 e5bc 2366 88bd c150 553d 2d7d 6e3d
000003b0: 4823 ba3d a4e4 aa3d 90fc 8dbd 22a4 f03d
000003c0: fe40 e53c 1f8b 4f3d 6b7f 25be c61d 8fbc
000003d0: 7edd aa3d f20a fdbd a48a 29bd 06eb d1bd
000003e0: 3e12 d1bd efb7 ef3c c6bb 34bc a87f 843d
000003f0: c232 42bd b648 b83c a5ae 403d caaf 573d
0.13133107 -0.09309079 0.037318885 -0.041632723 -0.03446579 0.084864855 0.012552894 0.021482954
0.038624365 0.01866022 0.05443609 -0.09397674 -0.10345164 0.09971262 0.048885196 -0.031211644
0.061179683 -0.09481203 0.0023052902 -0.019395337 -0.027635528 0.057992928 0.0034080034 -0.07125084
0.08502564 -0.10423144 0.025674684 0.02646886 0.023644466 0.04025023 0.10386176 0.047540817
-0.10467281 0.039241023 0.08773714 0.033017404 -0.040688515 -0.04027421 0.03440517 -0.07326047
-0.048534084 0.11794876 0.013999666 -0.00041404527 -0.08909708 -0.05666509 -0.021042546 -0.09353706
-0.0068238927 0.034026418 0.10744898 0.096250825 0.035923235 -0.06347185 0.052400414 0.03896616
-0.09691278 -0.06955629 -0.06259195 -0.010463369 -0.067391284 0.019961493 0.06752767 0.1132134
-0.022933027 0.0061981035 -0.019023152 0.10954928 0.06998643 0.012626257 0.0038646092 -0.07763064
-0.09847026 0.17807104 0.0025611818 -0.035093278 -0.12305922 0.02396929 -0.06042522 0.05196324
-0.13836217 -0.023186915 0.110199526 0.031257026 -0.13771008 -0.048886243 0.061714385 -0.111144744
-0.069347575 -0.032670584 -0.08308855 0.005452863 0.02980593 0.093551405 0.035620134 -0.07728643
-0.05481941 -0.12754126 0.031006077 -0.13704592 -0.16769496 0.007917163 -0.03513363 0.12002247
-0.14384705 -0.15397339 -0.062906876 0.14354284 0.08667552 0.06252706 0.07443431 -0.11819906
0.121426284 -0.013119835 -0.11369883 0.082289465 -0.031411365 -0.08037786 0.10223518 -0.005368219
-0.12192262 -0.08152546 0.040568274 -0.08536532 -0.1381787 0.10071965 -0.12507579 0.08338979
-0.06453675 -0.12662262 -0.0821434 -0.019314677 0.066250354 0.12223576 -0.012015871 -0.113580525
0.011264435 0.058028117 -0.1345692 -0.00787324 -0.15130341 -0.1273316 0.11555945 -0.016225832
0.13618916 -0.0042629386 0.078417815 -0.09351123 -0.062100645 -0.13990226 0.12040707 0.075572565
0.08177861 -0.06978112 -0.10400884 -0.12475217 0.095237285 -0.08015938 -0.0011364018 -0.112466045
0.09794924 -0.00585159 0.062713884 0.07525399 0.08019701 0.110774405 -0.10346001 0.016214496
0.03652526 -0.036096096 -0.009232313 -0.123350464 0.07241079 -0.030515179 0.013047085 0.052991346
-0.011653134 0.11047058 0.046618853 0.0010722 -0.15809695 0.025169339 -0.14019385 0.015193448
0.08143445 0.07381759 0.14711541 -0.061795354 0.046704274 0.12936424 -0.082271226 0.06328138
-0.1115138 -0.034092117 -0.08675425 -0.12084345 -0.0525357 -0.06518746 0.12032885 -0.08170505
0.07323573 -0.045521487 0.07669665 0.029954247 0.08323031 -0.095177 -0.05618372 0.052801296
-0.0066978466 -0.058395557 0.13292791 0.00017772424 0.1092364 -0.054640967 -0.115622625 -0.0957779
-0.12584801 -0.012467554 0.07737041 0.04625116 -0.12960595 0.07475059 -0.080882505 0.062232964
-0.0219762 -0.028634582 0.08484746 -0.03193408 -0.0019549234 0.11675135 0.02409761 0.09160045
-0.027978977 -0.06660106 0.052078966 0.058224846 0.090887606 0.08344391 -0.06932938 0.11750056
0.027985092 0.050669786 -0.16161887 -0.017470252 0.083430275 -0.12355603 -0.041391984 -0.10249905
-0.102085575 0.029262511 -0.011031097 0.06469661 -0.047411688 0.022495609 0.047041554 0.05265788

fc_unit.4.bias f4 [10]
00000000: 62a4 553d d46a c9bc 6476 843d e4fd cbbc
00000010: 5b01 763d 65ec d6bd ce12 d13d 7cfe 19bd
00000020: 28bd 963d dfa9 8bbd
0.05215872 -0.024587072 0.06467894 -0.024901338 0.060059886 -0.104943074 0.10208665 -0.03759621
0.073602974 -0.0681951
